program(1.0)
[buildInfo = dict<tensor<string, []>, tensor<string, []>>({{"coremlc-component-MIL", "3402.3.2"}, {"coremlc-version", "3402.4.1"}})]
{
    func main<ios16>(tensor<fp32, [1, 3, 640, 384]> image) {
            tensor<fp32, []> image__scaled___y_0 = const()[name = tensor<string, []>("image__scaled___y_0"), val = tensor<fp32, []>(0x1.010102p-8)];
            tensor<fp32, [1, 3, 640, 384]> image__scaled__ = mul(x = image, y = image__scaled___y_0)[name = tensor<string, []>("image__scaled__")];
            tensor<int32, []> var_39 = const()[name = tensor<string, []>("op_39"), val = tensor<int32, []>(1)];
            tensor<int32, [2]> var_46 = const()[name = tensor<string, []>("op_46"), val = tensor<int32, [2]>([2, 2])];
            tensor<int32, [2]> var_48 = const()[name = tensor<string, []>("op_48"), val = tensor<int32, [2]>([1, 1])];
            tensor<string, []> input_1_pad_type_0 = const()[name = tensor<string, []>("input_1_pad_type_0"), val = tensor<string, []>("custom")];
            tensor<int32, [4]> input_1_pad_0 = const()[name = tensor<string, []>("input_1_pad_0"), val = tensor<int32, [4]>([1, 1, 1, 1])];
            tensor<string, []> image_to_fp16_dtype_0 = const()[name = tensor<string, []>("image_to_fp16_dtype_0"), val = tensor<string, []>("fp16")];
            tensor<fp16, [16, 3, 3, 3]> model_0_conv_weight_to_fp16 = const()[name = tensor<string, []>("model_0_conv_weight_to_fp16"), val = tensor<fp16, [16, 3, 3, 3]>(BLOBFILE(path = tensor<string, []>("@model_path/weights/weight.bin"), offset = tensor<uint64, []>(64)))];
            tensor<fp16, [16]> model_0_conv_bias_to_fp16 = const()[name = tensor<string, []>("model_0_conv_bias_to_fp16"), val = tensor<fp16, [16]>(BLOBFILE(path = tensor<string, []>("@model_path/weights/weight.bin"), offset = tensor<uint64, []>(1024)))];
            tensor<fp16, [1, 3, 640, 384]> cast_1 = cast(dtype = image_to_fp16_dtype_0, x = image__scaled__)[name = tensor<string, []>("cast_1")];
            tensor<fp16, [1, 16, 320, 192]> input_1_cast_fp16 = conv(bias = model_0_conv_bias_to_fp16, dilations = var_48, groups = var_39, pad = input_1_pad_0, pad_type = input_1_pad_type_0, strides = var_46, weight = model_0_conv_weight_to_fp16, x = cast_1)[name = tensor<string, []>("input_1_cast_fp16")];
            tensor<fp16, [1, 16, 320, 192]> input_3_cast_fp16 = silu(x = input_1_cast_fp16)[name = tensor<string, []>("input_3_cast_fp16")];
            tensor<int32, []> var_53 = const()[name = tensor<string, []>("op_53"), val = tensor<int32, []>(1)];
            tensor<int32, [2]> var_60 = const()[name = tensor<string, []>("op_60"), val = tensor<int32, [2]>([2, 2])];
            tensor<int32, [2]> var_62 = const()[name = tensor<string, []>("op_62"), val = tensor<int32, [2]>([1, 1])];
            tensor<string, []> input_5_pad_type_0 = const()[name = tensor<string, []>("input_5_pad_type_0"), val = tensor<string, []>("custom")];
            tensor<int32, [4]> input_5_pad_0 = const()[name = tensor<string, []>("input_5_pad_0"), val = tensor<int32, [4]>([1, 1, 1, 1])];
            tensor<fp16, [32, 16, 3, 3]> model_1_conv_weight_to_fp16_palettized = constexpr_lut_to_dense()[indices = tensor<uint8, [4608]>(BLOBFILE(path = tensor<string, []>("@model_path/weights/weight.bin"), offset = tensor<uint64, []>(1152))), lut = tensor<fp16, [256]>(BLOBFILE(path = tensor<string, []>("@model_path/weights/weight.bin"), offset = tensor<uint64, []>(5824))), name = tensor<string, []>("model_1_conv_weight_to_fp16_palettized"), shape = tensor<uint32, [4]>([32, 16, 3, 3])];
            tensor<fp16, [32]> model_1_conv_bias_to_fp16 = const()[name = tensor<string, []>("model_1_conv_bias_to_fp16"), val = tensor<fp16, [32]>(BLOBFILE(path = tensor<string, []>("@model_path/weights/weight.bin"), offset = tensor<uint64, []>(6400)))];
            tensor<fp16, [1, 32, 160, 96]> input_5_cast_fp16 = conv(bias = model_1_conv_bias_to_fp16, dilations = var_62, groups = var_53, pad = input_5_pad_0, pad_type = input_5_pad_type_0, strides = var_60, weight = model_1_conv_weight_to_fp16_palettized, x = input_3_cast_fp16)[name = tensor<string, []>("input_5_cast_fp16")];
            tensor<fp16, [1, 32, 160, 96]> input_7_cast_fp16 = silu(x = input_5_cast_fp16)[name = tensor<string, []>("input_7_cast_fp16")];
            tensor<int32, []> var_70 = const()[name = tensor<string, []>("op_70"), val = tensor<int32, []>(1)];
            tensor<int32, [2]> var_78 = const()[name = tensor<string, []>("op_78"), val = tensor<int32, [2]>([1, 1])];
            tensor<int32, [2]> var_80 = const()[name = tensor<string, []>("op_80"), val = tensor<int32, [2]>([1, 1])];
            tensor<string, []> input_9_pad_type_0 = const()[name = tensor<string, []>("input_9_pad_type_0"), val = tensor<string, []>("custom")];
            tensor<int32, [4]> input_9_pad_0 = const()[name = tensor<string, []>("input_9_pad_0"), val = tensor<int32, [4]>([0, 0, 0, 0])];
            tensor<fp16, [32, 32, 1, 1]> model_2_cv1_conv_weight_to_fp16_palettized = constexpr_lut_to_dense()[indices = tensor<uint8, [1024]>(BLOBFILE(path = tensor<string, []>("@model_path/weights/weight.bin"), offset = tensor<uint64, []>(6528))), lut = tensor<fp16, [256]>(BLOBFILE(path = tensor<string, []>("@model_path/weights/weight.bin"), offset = tensor<uint64, []>(7616))), name = tensor<string, []>("model_2_cv1_conv_weight_to_fp16_palettized"), shape = tensor<uint32, [4]>([32, 32, 1, 1])];
            tensor<fp16, [32]> model_2_cv1_conv_bias_to_fp16 = const()[name = tensor<string, []>("model_2_cv1_conv_bias_to_fp16"), val = tensor<fp16, [32]>(BLOBFILE(path = tensor<string, []>("@model_path/weights/weight.bin"), offset = tensor<uint64, []>(8192)))];
            tensor<fp16, [1, 32, 160, 96]> input_9_cast_fp16 = conv(bias = model_2_cv1_conv_bias_to_fp16, dilations = var_80, groups = var_70, pad = input_9_pad_0, pad_type = input_9_pad_type_0, strides = var_78, weight = model_2_cv1_conv_weight_to_fp16_palettized, x = input_7_cast_fp16)[name = tensor<string, []>("input_9_cast_fp16")];
            tensor<fp16, [1, 32, 160, 96]> var_83_cast_fp16 = silu(x = input_9_cast_fp16)[name = tensor<string, []>("op_83_cast_fp16")];
            tensor<int32, [2]> var_84 = const()[name = tensor<string, []>("op_84"), val = tensor<int32, [2]>([16, 16])];
            tensor<int32, []> var_85_axis_0 = const()[name = tensor<string, []>("op_85_axis_0"), val = tensor<int32, []>(1)];
            tensor<fp16, [1, 16, 160, 96]> var_85_cast_fp16_0, tensor<fp16, [1, 16, 160, 96]> var_85_cast_fp16_1 = split(axis = var_85_axis_0, split_sizes = var_84, x = var_83_cast_fp16)[name = tensor<string, []>("op_85_cast_fp16")];
            tensor<int32, [2]> var_93 = const()[name = tensor<string, []>("op_93"), val = tensor<int32, [2]>([1, 1])];
            tensor<int32, [2]> var_95 = const()[name = tensor<string, []>("op_95"), val = tensor<int32, [2]>([1, 1])];
            tensor<string, []> input_13_pad_type_0 = const()[name = tensor<string, []>("input_13_pad_type_0"), val = tensor<string, []>("custom")];
            tensor<int32, [4]> input_13_pad_0 = const()[name = tensor<string, []>("input_13_pad_0"), val = tensor<int32, [4]>([1, 1, 1, 1])];
            tensor<fp16, [8, 16, 3, 3]> model_2_m_0_cv1_conv_weight_to_fp16_palettized = constexpr_lut_to_dense()[indices = tensor<uint8, [1152]>(BLOBFILE(path = tensor<string, []>("@model_path/weights/weight.bin"), offset = tensor<uint64, []>(8320))), lut = tensor<fp16, [256]>(BLOBFILE(path = tensor<string, []>("@model_path/weights/weight.bin"), offset = tensor<uint64, []>(9536))), name = tensor<string, []>("model_2_m_0_cv1_conv_weight_to_fp16_palettized"), shape = tensor<uint32, [4]>([8, 16, 3, 3])];
            tensor<fp16, [8]> model_2_m_0_cv1_conv_bias_to_fp16 = const()[name = tensor<string, []>("model_2_m_0_cv1_conv_bias_to_fp16"), val = tensor<fp16, [8]>([0x1.e1cp+0, 0x1.b34p+0, 0x1.234p+0, 0x1.2ecp+1, 0x1.ec4p+0, 0x1.528p+0, 0x1.ep-1, 0x1.094p+1])];
            tensor<fp16, [1, 8, 160, 96]> input_13_cast_fp16 = conv(bias = model_2_m_0_cv1_conv_bias_to_fp16, dilations = var_95, groups = var_70, pad = input_13_pad_0, pad_type = input_13_pad_type_0, strides = var_93, weight = model_2_m_0_cv1_conv_weight_to_fp16_palettized, x = var_85_cast_fp16_1)[name = tensor<string, []>("input_13_cast_fp16")];
            tensor<fp16, [1, 8, 160, 96]> input_15_cast_fp16 = silu(x = input_13_cast_fp16)[name = tensor<string, []>("input_15_cast_fp16")];
            tensor<int32, [2]> var_102 = const()[name = tensor<string, []>("op_102"), val = tensor<int32, [2]>([1, 1])];
            tensor<int32, [2]> var_104 = const()[name = tensor<string, []>("op_104"), val = tensor<int32, [2]>([1, 1])];
            tensor<string, []> input_17_pad_type_0 = const()[name = tensor<string, []>("input_17_pad_type_0"), val = tensor<string, []>("custom")];
            tensor<int32, [4]> input_17_pad_0 = const()[name = tensor<string, []>("input_17_pad_0"), val = tensor<int32, [4]>([1, 1, 1, 1])];
            tensor<fp16, [16, 8, 3, 3]> model_2_m_0_cv2_conv_weight_to_fp16_palettized = constexpr_lut_to_dense()[indices = tensor<uint8, [1152]>(BLOBFILE(path = tensor<string, []>("@model_path/weights/weight.bin"), offset = tensor<uint64, []>(10112))), lut = tensor<fp16, [256]>(BLOBFILE(path = tensor<string, []>("@model_path/weights/weight.bin"), offset = tensor<uint64, []>(11328))), name = tensor<string, []>("model_2_m_0_cv2_conv_weight_to_fp16_palettized"), shape = tensor<uint32, [4]>([16, 8, 3, 3])];
            tensor<fp16, [16]> model_2_m_0_cv2_conv_bias_to_fp16 = const()[name = tensor<string, []>("model_2_m_0_cv2_conv_bias_to_fp16"), val = tensor<fp16, [16]>(BLOBFILE(path = tensor<string, []>("@model_path/weights/weight.bin"), offset = tensor<uint64, []>(11904)))];
            tensor<fp16, [1, 16, 160, 96]> input_17_cast_fp16 = conv(bias = model_2_m_0_cv2_conv_bias_to_fp16, dilations = var_104, groups = var_70, pad = input_17_pad_0, pad_type = input_17_pad_type_0, strides = var_102, weight = model_2_m_0_cv2_conv_weight_to_fp16_palettized, x = input_15_cast_fp16)[name = tensor<string, []>("input_17_cast_fp16")];
            tensor<fp16, [1, 16, 160, 96]> var_107_cast_fp16 = silu(x = input_17_cast_fp16)[name = tensor<string, []>("op_107_cast_fp16")];
            tensor<fp16, [1, 16, 160, 96]> var_108_cast_fp16 = add(x = var_85_cast_fp16_1, y = var_107_cast_fp16)[name = tensor<string, []>("op_108_cast_fp16")];
            tensor<bool, []> input_19_interleave_0 = const()[name = tensor<string, []>("input_19_interleave_0"), val = tensor<bool, []>(false)];
            tensor<fp16, [1, 48, 160, 96]> input_19_cast_fp16 = concat(axis = var_70, interleave = input_19_interleave_0, values = (var_85_cast_fp16_0, var_85_cast_fp16_1, var_108_cast_fp16))[name = tensor<string, []>("input_19_cast_fp16")];
            tensor<int32, [2]> var_114 = const()[name = tensor<string, []>("op_114"), val = tensor<int32, [2]>([1, 1])];
            tensor<int32, [2]> var_116 = const()[name = tensor<string, []>("op_116"), val = tensor<int32, [2]>([1, 1])];
            tensor<string, []> input_21_pad_type_0 = const()[name = tensor<string, []>("input_21_pad_type_0"), val = tensor<string, []>("custom")];
            tensor<int32, [4]> input_21_pad_0 = const()[name = tensor<string, []>("input_21_pad_0"), val = tensor<int32, [4]>([0, 0, 0, 0])];
            tensor<fp16, [64, 48, 1, 1]> model_2_cv2_conv_weight_to_fp16_palettized = constexpr_lut_to_dense()[indices = tensor<uint8, [3072]>(BLOBFILE(path = tensor<string, []>("@model_path/weights/weight.bin"), offset = tensor<uint64, []>(12032))), lut = tensor<fp16, [256]>(BLOBFILE(path = tensor<string, []>("@model_path/weights/weight.bin"), offset = tensor<uint64, []>(15168))), name = tensor<string, []>("model_2_cv2_conv_weight_to_fp16_palettized"), shape = tensor<uint32, [4]>([64, 48, 1, 1])];
            tensor<fp16, [64]> model_2_cv2_conv_bias_to_fp16 = const()[name = tensor<string, []>("model_2_cv2_conv_bias_to_fp16"), val = tensor<fp16, [64]>(BLOBFILE(path = tensor<string, []>("@model_path/weights/weight.bin"), offset = tensor<uint64, []>(15744)))];
            tensor<fp16, [1, 64, 160, 96]> input_21_cast_fp16 = conv(bias = model_2_cv2_conv_bias_to_fp16, dilations = var_116, groups = var_70, pad = input_21_pad_0, pad_type = input_21_pad_type_0, strides = var_114, weight = model_2_cv2_conv_weight_to_fp16_palettized, x = input_19_cast_fp16)[name = tensor<string, []>("input_21_cast_fp16")];
            tensor<fp16, [1, 64, 160, 96]> input_23_cast_fp16 = silu(x = input_21_cast_fp16)[name = tensor<string, []>("input_23_cast_fp16")];
            tensor<int32, []> var_121 = const()[name = tensor<string, []>("op_121"), val = tensor<int32, []>(1)];
            tensor<int32, [2]> var_128 = const()[name = tensor<string, []>("op_128"), val = tensor<int32, [2]>([2, 2])];
            tensor<int32, [2]> var_130 = const()[name = tensor<string, []>("op_130"), val = tensor<int32, [2]>([1, 1])];
            tensor<string, []> input_25_pad_type_0 = const()[name = tensor<string, []>("input_25_pad_type_0"), val = tensor<string, []>("custom")];
            tensor<int32, [4]> input_25_pad_0 = const()[name = tensor<string, []>("input_25_pad_0"), val = tensor<int32, [4]>([1, 1, 1, 1])];
            tensor<fp16, [64, 64, 3, 3]> model_3_conv_weight_to_fp16_palettized = constexpr_lut_to_dense()[indices = tensor<uint8, [36864]>(BLOBFILE(path = tensor<string, []>("@model_path/weights/weight.bin"), offset = tensor<uint64, []>(15936))), lut = tensor<fp16, [256]>(BLOBFILE(path = tensor<string, []>("@model_path/weights/weight.bin"), offset = tensor<uint64, []>(52864))), name = tensor<string, []>("model_3_conv_weight_to_fp16_palettized"), shape = tensor<uint32, [4]>([64, 64, 3, 3])];
            tensor<fp16, [64]> model_3_conv_bias_to_fp16 = const()[name = tensor<string, []>("model_3_conv_bias_to_fp16"), val = tensor<fp16, [64]>(BLOBFILE(path = tensor<string, []>("@model_path/weights/weight.bin"), offset = tensor<uint64, []>(53440)))];
            tensor<fp16, [1, 64, 80, 48]> input_25_cast_fp16 = conv(bias = model_3_conv_bias_to_fp16, dilations = var_130, groups = var_121, pad = input_25_pad_0, pad_type = input_25_pad_type_0, strides = var_128, weight = model_3_conv_weight_to_fp16_palettized, x = input_23_cast_fp16)[name = tensor<string, []>("input_25_cast_fp16")];
            tensor<fp16, [1, 64, 80, 48]> input_27_cast_fp16 = silu(x = input_25_cast_fp16)[name = tensor<string, []>("input_27_cast_fp16")];
            tensor<int32, []> var_138 = const()[name = tensor<string, []>("op_138"), val = tensor<int32, []>(1)];
            tensor<int32, [2]> var_146 = const()[name = tensor<string, []>("op_146"), val = tensor<int32, [2]>([1, 1])];
            tensor<int32, [2]> var_148 = const()[name = tensor<string, []>("op_148"), val = tensor<int32, [2]>([1, 1])];
            tensor<string, []> input_29_pad_type_0 = const()[name = tensor<string, []>("input_29_pad_type_0"), val = tensor<string, []>("custom")];
            tensor<int32, [4]> input_29_pad_0 = const()[name = tensor<string, []>("input_29_pad_0"), val = tensor<int32, [4]>([0, 0, 0, 0])];
            tensor<fp16, [64, 64, 1, 1]> model_4_cv1_conv_weight_to_fp16_palettized = constexpr_lut_to_dense()[indices = tensor<uint8, [4096]>(BLOBFILE(path = tensor<string, []>("@model_path/weights/weight.bin"), offset = tensor<uint64, []>(53632))), lut = tensor<fp16, [256]>(BLOBFILE(path = tensor<string, []>("@model_path/weights/weight.bin"), offset = tensor<uint64, []>(57792))), name = tensor<string, []>("model_4_cv1_conv_weight_to_fp16_palettized"), shape = tensor<uint32, [4]>([64, 64, 1, 1])];
            tensor<fp16, [64]> model_4_cv1_conv_bias_to_fp16 = const()[name = tensor<string, []>("model_4_cv1_conv_bias_to_fp16"), val = tensor<fp16, [64]>(BLOBFILE(path = tensor<string, []>("@model_path/weights/weight.bin"), offset = tensor<uint64, []>(58368)))];
            tensor<fp16, [1, 64, 80, 48]> input_29_cast_fp16 = conv(bias = model_4_cv1_conv_bias_to_fp16, dilations = var_148, groups = var_138, pad = input_29_pad_0, pad_type = input_29_pad_type_0, strides = var_146, weight = model_4_cv1_conv_weight_to_fp16_palettized, x = input_27_cast_fp16)[name = tensor<string, []>("input_29_cast_fp16")];
            tensor<fp16, [1, 64, 80, 48]> var_151_cast_fp16 = silu(x = input_29_cast_fp16)[name = tensor<string, []>("op_151_cast_fp16")];
            tensor<int32, [2]> var_152 = const()[name = tensor<string, []>("op_152"), val = tensor<int32, [2]>([32, 32])];
            tensor<int32, []> var_153_axis_0 = const()[name = tensor<string, []>("op_153_axis_0"), val = tensor<int32, []>(1)];
            tensor<fp16, [1, 32, 80, 48]> var_153_cast_fp16_0, tensor<fp16, [1, 32, 80, 48]> var_153_cast_fp16_1 = split(axis = var_153_axis_0, split_sizes = var_152, x = var_151_cast_fp16)[name = tensor<string, []>("op_153_cast_fp16")];
            tensor<int32, [2]> var_161 = const()[name = tensor<string, []>("op_161"), val = tensor<int32, [2]>([1, 1])];
            tensor<int32, [2]> var_163 = const()[name = tensor<string, []>("op_163"), val = tensor<int32, [2]>([1, 1])];
            tensor<string, []> input_33_pad_type_0 = const()[name = tensor<string, []>("input_33_pad_type_0"), val = tensor<string, []>("custom")];
            tensor<int32, [4]> input_33_pad_0 = const()[name = tensor<string, []>("input_33_pad_0"), val = tensor<int32, [4]>([1, 1, 1, 1])];
            tensor<fp16, [16, 32, 3, 3]> model_4_m_0_cv1_conv_weight_to_fp16_palettized = constexpr_lut_to_dense()[indices = tensor<uint8, [4608]>(BLOBFILE(path = tensor<string, []>("@model_path/weights/weight.bin"), offset = tensor<uint64, []>(58560))), lut = tensor<fp16, [256]>(BLOBFILE(path = tensor<string, []>("@model_path/weights/weight.bin"), offset = tensor<uint64, []>(63232))), name = tensor<string, []>("model_4_m_0_cv1_conv_weight_to_fp16_palettized"), shape = tensor<uint32, [4]>([16, 32, 3, 3])];
            tensor<fp16, [16]> model_4_m_0_cv1_conv_bias_to_fp16 = const()[name = tensor<string, []>("model_4_m_0_cv1_conv_bias_to_fp16"), val = tensor<fp16, [16]>(BLOBFILE(path = tensor<string, []>("@model_path/weights/weight.bin"), offset = tensor<uint64, []>(63808)))];
            tensor<fp16, [1, 16, 80, 48]> input_33_cast_fp16 = conv(bias = model_4_m_0_cv1_conv_bias_to_fp16, dilations = var_163, groups = var_138, pad = input_33_pad_0, pad_type = input_33_pad_type_0, strides = var_161, weight = model_4_m_0_cv1_conv_weight_to_fp16_palettized, x = var_153_cast_fp16_1)[name = tensor<string, []>("input_33_cast_fp16")];
            tensor<fp16, [1, 16, 80, 48]> input_35_cast_fp16 = silu(x = input_33_cast_fp16)[name = tensor<string, []>("input_35_cast_fp16")];
            tensor<int32, [2]> var_170 = const()[name = tensor<string, []>("op_170"), val = tensor<int32, [2]>([1, 1])];
            tensor<int32, [2]> var_172 = const()[name = tensor<string, []>("op_172"), val = tensor<int32, [2]>([1, 1])];
            tensor<string, []> input_37_pad_type_0 = const()[name = tensor<string, []>("input_37_pad_type_0"), val = tensor<string, []>("custom")];
            tensor<int32, [4]> input_37_pad_0 = const()[name = tensor<string, []>("input_37_pad_0"), val = tensor<int32, [4]>([1, 1, 1, 1])];
            tensor<fp16, [32, 16, 3, 3]> model_4_m_0_cv2_conv_weight_to_fp16_palettized = constexpr_lut_to_dense()[indices = tensor<uint8, [4608]>(BLOBFILE(path = tensor<string, []>("@model_path/weights/weight.bin"), offset = tensor<uint64, []>(63936))), lut = tensor<fp16, [256]>(BLOBFILE(path = tensor<string, []>("@model_path/weights/weight.bin"), offset = tensor<uint64, []>(68608))), name = tensor<string, []>("model_4_m_0_cv2_conv_weight_to_fp16_palettized"), shape = tensor<uint32, [4]>([32, 16, 3, 3])];
            tensor<fp16, [32]> model_4_m_0_cv2_conv_bias_to_fp16 = const()[name = tensor<string, []>("model_4_m_0_cv2_conv_bias_to_fp16"), val = tensor<fp16, [32]>(BLOBFILE(path = tensor<string, []>("@model_path/weights/weight.bin"), offset = tensor<uint64, []>(69184)))];
            tensor<fp16, [1, 32, 80, 48]> input_37_cast_fp16 = conv(bias = model_4_m_0_cv2_conv_bias_to_fp16, dilations = var_172, groups = var_138, pad = input_37_pad_0, pad_type = input_37_pad_type_0, strides = var_170, weight = model_4_m_0_cv2_conv_weight_to_fp16_palettized, x = input_35_cast_fp16)[name = tensor<string, []>("input_37_cast_fp16")];
            tensor<fp16, [1, 32, 80, 48]> var_175_cast_fp16 = silu(x = input_37_cast_fp16)[name = tensor<string, []>("op_175_cast_fp16")];
            tensor<fp16, [1, 32, 80, 48]> var_176_cast_fp16 = add(x = var_153_cast_fp16_1, y = var_175_cast_fp16)[name = tensor<string, []>("op_176_cast_fp16")];
            tensor<bool, []> input_39_interleave_0 = const()[name = tensor<string, []>("input_39_interleave_0"), val = tensor<bool, []>(false)];
            tensor<fp16, [1, 96, 80, 48]> input_39_cast_fp16 = concat(axis = var_138, interleave = input_39_interleave_0, values = (var_153_cast_fp16_0, var_153_cast_fp16_1, var_176_cast_fp16))[name = tensor<string, []>("input_39_cast_fp16")];
            tensor<int32, [2]> var_182 = const()[name = tensor<string, []>("op_182"), val = tensor<int32, [2]>([1, 1])];
            tensor<int32, [2]> var_184 = const()[name = tensor<string, []>("op_184"), val = tensor<int32, [2]>([1, 1])];
            tensor<string, []> input_41_pad_type_0 = const()[name = tensor<string, []>("input_41_pad_type_0"), val = tensor<string, []>("custom")];
            tensor<int32, [4]> input_41_pad_0 = const()[name = tensor<string, []>("input_41_pad_0"), val = tensor<int32, [4]>([0, 0, 0, 0])];
            tensor<fp16, [128, 96, 1, 1]> model_4_cv2_conv_weight_to_fp16_palettized = constexpr_lut_to_dense()[indices = tensor<uint8, [12288]>(BLOBFILE(path = tensor<string, []>("@model_path/weights/weight.bin"), offset = tensor<uint64, []>(69312))), lut = tensor<fp16, [256]>(BLOBFILE(path = tensor<string, []>("@model_path/weights/weight.bin"), offset = tensor<uint64, []>(81664))), name = tensor<string, []>("model_4_cv2_conv_weight_to_fp16_palettized"), shape = tensor<uint32, [4]>([128, 96, 1, 1])];
            tensor<fp16, [128]> model_4_cv2_conv_bias_to_fp16 = const()[name = tensor<string, []>("model_4_cv2_conv_bias_to_fp16"), val = tensor<fp16, [128]>(BLOBFILE(path = tensor<string, []>("@model_path/weights/weight.bin"), offset = tensor<uint64, []>(82240)))];
            tensor<fp16, [1, 128, 80, 48]> input_41_cast_fp16 = conv(bias = model_4_cv2_conv_bias_to_fp16, dilations = var_184, groups = var_138, pad = input_41_pad_0, pad_type = input_41_pad_type_0, strides = var_182, weight = model_4_cv2_conv_weight_to_fp16_palettized, x = input_39_cast_fp16)[name = tensor<string, []>("input_41_cast_fp16")];
            tensor<fp16, [1, 128, 80, 48]> input_43_cast_fp16 = silu(x = input_41_cast_fp16)[name = tensor<string, []>("input_43_cast_fp16")];
            tensor<int32, []> var_189 = const()[name = tensor<string, []>("op_189"), val = tensor<int32, []>(1)];
            tensor<int32, [2]> var_196 = const()[name = tensor<string, []>("op_196"), val = tensor<int32, [2]>([2, 2])];
            tensor<int32, [2]> var_198 = const()[name = tensor<string, []>("op_198"), val = tensor<int32, [2]>([1, 1])];
            tensor<string, []> input_45_pad_type_0 = const()[name = tensor<string, []>("input_45_pad_type_0"), val = tensor<string, []>("custom")];
            tensor<int32, [4]> input_45_pad_0 = const()[name = tensor<string, []>("input_45_pad_0"), val = tensor<int32, [4]>([1, 1, 1, 1])];
            tensor<fp16, [128, 128, 3, 3]> model_5_conv_weight_to_fp16_palettized = constexpr_lut_to_dense()[indices = tensor<uint8, [147456]>(BLOBFILE(path = tensor<string, []>("@model_path/weights/weight.bin"), offset = tensor<uint64, []>(82560))), lut = tensor<fp16, [256]>(BLOBFILE(path = tensor<string, []>("@model_path/weights/weight.bin"), offset = tensor<uint64, []>(230080))), name = tensor<string, []>("model_5_conv_weight_to_fp16_palettized"), shape = tensor<uint32, [4]>([128, 128, 3, 3])];
            tensor<fp16, [128]> model_5_conv_bias_to_fp16 = const()[name = tensor<string, []>("model_5_conv_bias_to_fp16"), val = tensor<fp16, [128]>(BLOBFILE(path = tensor<string, []>("@model_path/weights/weight.bin"), offset = tensor<uint64, []>(230656)))];
            tensor<fp16, [1, 128, 40, 24]> input_45_cast_fp16 = conv(bias = model_5_conv_bias_to_fp16, dilations = var_198, groups = var_189, pad = input_45_pad_0, pad_type = input_45_pad_type_0, strides = var_196, weight = model_5_conv_weight_to_fp16_palettized, x = input_43_cast_fp16)[name = tensor<string, []>("input_45_cast_fp16")];
            tensor<fp16, [1, 128, 40, 24]> input_47_cast_fp16 = silu(x = input_45_cast_fp16)[name = tensor<string, []>("input_47_cast_fp16")];
            tensor<int32, []> var_206 = const()[name = tensor<string, []>("op_206"), val = tensor<int32, []>(1)];
            tensor<int32, [2]> var_214 = const()[name = tensor<string, []>("op_214"), val = tensor<int32, [2]>([1, 1])];
            tensor<int32, [2]> var_216 = const()[name = tensor<string, []>("op_216"), val = tensor<int32, [2]>([1, 1])];
            tensor<string, []> input_49_pad_type_0 = const()[name = tensor<string, []>("input_49_pad_type_0"), val = tensor<string, []>("custom")];
            tensor<int32, [4]> input_49_pad_0 = const()[name = tensor<string, []>("input_49_pad_0"), val = tensor<int32, [4]>([0, 0, 0, 0])];
            tensor<fp16, [128, 128, 1, 1]> model_6_cv1_conv_weight_to_fp16_palettized = constexpr_lut_to_dense()[indices = tensor<uint8, [16384]>(BLOBFILE(path = tensor<string, []>("@model_path/weights/weight.bin"), offset = tensor<uint64, []>(230976))), lut = tensor<fp16, [256]>(BLOBFILE(path = tensor<string, []>("@model_path/weights/weight.bin"), offset = tensor<uint64, []>(247424))), name = tensor<string, []>("model_6_cv1_conv_weight_to_fp16_palettized"), shape = tensor<uint32, [4]>([128, 128, 1, 1])];
            tensor<fp16, [128]> model_6_cv1_conv_bias_to_fp16 = const()[name = tensor<string, []>("model_6_cv1_conv_bias_to_fp16"), val = tensor<fp16, [128]>(BLOBFILE(path = tensor<string, []>("@model_path/weights/weight.bin"), offset = tensor<uint64, []>(248000)))];
            tensor<fp16, [1, 128, 40, 24]> input_49_cast_fp16 = conv(bias = model_6_cv1_conv_bias_to_fp16, dilations = var_216, groups = var_206, pad = input_49_pad_0, pad_type = input_49_pad_type_0, strides = var_214, weight = model_6_cv1_conv_weight_to_fp16_palettized, x = input_47_cast_fp16)[name = tensor<string, []>("input_49_cast_fp16")];
            tensor<fp16, [1, 128, 40, 24]> var_219_cast_fp16 = silu(x = input_49_cast_fp16)[name = tensor<string, []>("op_219_cast_fp16")];
            tensor<int32, [2]> var_220 = const()[name = tensor<string, []>("op_220"), val = tensor<int32, [2]>([64, 64])];
            tensor<int32, []> var_221_axis_0 = const()[name = tensor<string, []>("op_221_axis_0"), val = tensor<int32, []>(1)];
            tensor<fp16, [1, 64, 40, 24]> var_221_cast_fp16_0, tensor<fp16, [1, 64, 40, 24]> var_221_cast_fp16_1 = split(axis = var_221_axis_0, split_sizes = var_220, x = var_219_cast_fp16)[name = tensor<string, []>("op_221_cast_fp16")];
            tensor<int32, [2]> var_231 = const()[name = tensor<string, []>("op_231"), val = tensor<int32, [2]>([1, 1])];
            tensor<int32, [2]> var_233 = const()[name = tensor<string, []>("op_233"), val = tensor<int32, [2]>([1, 1])];
            tensor<string, []> input_53_pad_type_0 = const()[name = tensor<string, []>("input_53_pad_type_0"), val = tensor<string, []>("custom")];
            tensor<int32, [4]> input_53_pad_0 = const()[name = tensor<string, []>("input_53_pad_0"), val = tensor<int32, [4]>([0, 0, 0, 0])];
            tensor<fp16, [32, 64, 1, 1]> model_6_m_0_cv1_conv_weight_to_fp16_palettized = constexpr_lut_to_dense()[indices = tensor<uint8, [2048]>(BLOBFILE(path = tensor<string, []>("@model_path/weights/weight.bin"), offset = tensor<uint64, []>(248320))), lut = tensor<fp16, [256]>(BLOBFILE(path = tensor<string, []>("@model_path/weights/weight.bin"), offset = tensor<uint64, []>(250432))), name = tensor<string, []>("model_6_m_0_cv1_conv_weight_to_fp16_palettized"), shape = tensor<uint32, [4]>([32, 64, 1, 1])];
            tensor<fp16, [32]> model_6_m_0_cv1_conv_bias_to_fp16 = const()[name = tensor<string, []>("model_6_m_0_cv1_conv_bias_to_fp16"), val = tensor<fp16, [32]>(BLOBFILE(path = tensor<string, []>("@model_path/weights/weight.bin"), offset = tensor<uint64, []>(251008)))];
            tensor<fp16, [1, 32, 40, 24]> input_53_cast_fp16 = conv(bias = model_6_m_0_cv1_conv_bias_to_fp16, dilations = var_233, groups = var_206, pad = input_53_pad_0, pad_type = input_53_pad_type_0, strides = var_231, weight = model_6_m_0_cv1_conv_weight_to_fp16_palettized, x = var_221_cast_fp16_1)[name = tensor<string, []>("input_53_cast_fp16")];
            tensor<fp16, [1, 32, 40, 24]> input_55_cast_fp16 = silu(x = input_53_cast_fp16)[name = tensor<string, []>("input_55_cast_fp16")];
            tensor<int32, [2]> var_244 = const()[name = tensor<string, []>("op_244"), val = tensor<int32, [2]>([1, 1])];
            tensor<int32, [2]> var_246 = const()[name = tensor<string, []>("op_246"), val = tensor<int32, [2]>([1, 1])];
            tensor<string, []> input_57_pad_type_0 = const()[name = tensor<string, []>("input_57_pad_type_0"), val = tensor<string, []>("custom")];
            tensor<int32, [4]> input_57_pad_0 = const()[name = tensor<string, []>("input_57_pad_0"), val = tensor<int32, [4]>([1, 1, 1, 1])];
            tensor<fp16, [32, 32, 3, 3]> model_6_m_0_m_0_cv1_conv_weight_to_fp16_palettized = constexpr_lut_to_dense()[indices = tensor<uint8, [9216]>(BLOBFILE(path = tensor<string, []>("@model_path/weights/weight.bin"), offset = tensor<uint64, []>(251136))), lut = tensor<fp16, [256]>(BLOBFILE(path = tensor<string, []>("@model_path/weights/weight.bin"), offset = tensor<uint64, []>(260416))), name = tensor<string, []>("model_6_m_0_m_0_cv1_conv_weight_to_fp16_palettized"), shape = tensor<uint32, [4]>([32, 32, 3, 3])];
            tensor<fp16, [32]> model_6_m_0_m_0_cv1_conv_bias_to_fp16 = const()[name = tensor<string, []>("model_6_m_0_m_0_cv1_conv_bias_to_fp16"), val = tensor<fp16, [32]>(BLOBFILE(path = tensor<string, []>("@model_path/weights/weight.bin"), offset = tensor<uint64, []>(260992)))];
            tensor<fp16, [1, 32, 40, 24]> input_57_cast_fp16 = conv(bias = model_6_m_0_m_0_cv1_conv_bias_to_fp16, dilations = var_246, groups = var_206, pad = input_57_pad_0, pad_type = input_57_pad_type_0, strides = var_244, weight = model_6_m_0_m_0_cv1_conv_weight_to_fp16_palettized, x = input_55_cast_fp16)[name = tensor<string, []>("input_57_cast_fp16")];
            tensor<fp16, [1, 32, 40, 24]> input_59_cast_fp16 = silu(x = input_57_cast_fp16)[name = tensor<string, []>("input_59_cast_fp16")];
            tensor<int32, [2]> var_253 = const()[name = tensor<string, []>("op_253"), val = tensor<int32, [2]>([1, 1])];
            tensor<int32, [2]> var_255 = const()[name = tensor<string, []>("op_255"), val = tensor<int32, [2]>([1, 1])];
            tensor<string, []> input_61_pad_type_0 = const()[name = tensor<string, []>("input_61_pad_type_0"), val = tensor<string, []>("custom")];
            tensor<int32, [4]> input_61_pad_0 = const()[name = tensor<string, []>("input_61_pad_0"), val = tensor<int32, [4]>([1, 1, 1, 1])];
            tensor<fp16, [32, 32, 3, 3]> model_6_m_0_m_0_cv2_conv_weight_to_fp16_palettized = constexpr_lut_to_dense()[indices = tensor<uint8, [9216]>(BLOBFILE(path = tensor<string, []>("@model_path/weights/weight.bin"), offset = tensor<uint64, []>(261120))), lut = tensor<fp16, [256]>(BLOBFILE(path = tensor<string, []>("@model_path/weights/weight.bin"), offset = tensor<uint64, []>(270400))), name = tensor<string, []>("model_6_m_0_m_0_cv2_conv_weight_to_fp16_palettized"), shape = tensor<uint32, [4]>([32, 32, 3, 3])];
            tensor<fp16, [32]> model_6_m_0_m_0_cv2_conv_bias_to_fp16 = const()[name = tensor<string, []>("model_6_m_0_m_0_cv2_conv_bias_to_fp16"), val = tensor<fp16, [32]>(BLOBFILE(path = tensor<string, []>("@model_path/weights/weight.bin"), offset = tensor<uint64, []>(270976)))];
            tensor<fp16, [1, 32, 40, 24]> input_61_cast_fp16 = conv(bias = model_6_m_0_m_0_cv2_conv_bias_to_fp16, dilations = var_255, groups = var_206, pad = input_61_pad_0, pad_type = input_61_pad_type_0, strides = var_253, weight = model_6_m_0_m_0_cv2_conv_weight_to_fp16_palettized, x = input_59_cast_fp16)[name = tensor<string, []>("input_61_cast_fp16")];
            tensor<fp16, [1, 32, 40, 24]> var_258_cast_fp16 = silu(x = input_61_cast_fp16)[name = tensor<string, []>("op_258_cast_fp16")];
            tensor<fp16, [1, 32, 40, 24]> input_63_cast_fp16 = add(x = input_55_cast_fp16, y = var_258_cast_fp16)[name = tensor<string, []>("input_63_cast_fp16")];
            tensor<int32, [2]> var_265 = const()[name = tensor<string, []>("op_265"), val = tensor<int32, [2]>([1, 1])];
            tensor<int32, [2]> var_267 = const()[name = tensor<string, []>("op_267"), val = tensor<int32, [2]>([1, 1])];
            tensor<string, []> input_65_pad_type_0 = const()[name = tensor<string, []>("input_65_pad_type_0"), val = tensor<string, []>("custom")];
            tensor<int32, [4]> input_65_pad_0 = const()[name = tensor<string, []>("input_65_pad_0"), val = tensor<int32, [4]>([1, 1, 1, 1])];
            tensor<fp16, [32, 32, 3, 3]> model_6_m_0_m_1_cv1_conv_weight_to_fp16_palettized = constexpr_lut_to_dense()[indices = tensor<uint8, [9216]>(BLOBFILE(path = tensor<string, []>("@model_path/weights/weight.bin"), offset = tensor<uint64, []>(271104))), lut = tensor<fp16, [256]>(BLOBFILE(path = tensor<string, []>("@model_path/weights/weight.bin"), offset = tensor<uint64, []>(280384))), name = tensor<string, []>("model_6_m_0_m_1_cv1_conv_weight_to_fp16_palettized"), shape = tensor<uint32, [4]>([32, 32, 3, 3])];
            tensor<fp16, [32]> model_6_m_0_m_1_cv1_conv_bias_to_fp16 = const()[name = tensor<string, []>("model_6_m_0_m_1_cv1_conv_bias_to_fp16"), val = tensor<fp16, [32]>(BLOBFILE(path = tensor<string, []>("@model_path/weights/weight.bin"), offset = tensor<uint64, []>(280960)))];
            tensor<fp16, [1, 32, 40, 24]> input_65_cast_fp16 = conv(bias = model_6_m_0_m_1_cv1_conv_bias_to_fp16, dilations = var_267, groups = var_206, pad = input_65_pad_0, pad_type = input_65_pad_type_0, strides = var_265, weight = model_6_m_0_m_1_cv1_conv_weight_to_fp16_palettized, x = input_63_cast_fp16)[name = tensor<string, []>("input_65_cast_fp16")];
            tensor<fp16, [1, 32, 40, 24]> input_67_cast_fp16 = silu(x = input_65_cast_fp16)[name = tensor<string, []>("input_67_cast_fp16")];
            tensor<int32, [2]> var_274 = const()[name = tensor<string, []>("op_274"), val = tensor<int32, [2]>([1, 1])];
            tensor<int32, [2]> var_276 = const()[name = tensor<string, []>("op_276"), val = tensor<int32, [2]>([1, 1])];
            tensor<string, []> input_69_pad_type_0 = const()[name = tensor<string, []>("input_69_pad_type_0"), val = tensor<string, []>("custom")];
            tensor<int32, [4]> input_69_pad_0 = const()[name = tensor<string, []>("input_69_pad_0"), val = tensor<int32, [4]>([1, 1, 1, 1])];
            tensor<fp16, [32, 32, 3, 3]> model_6_m_0_m_1_cv2_conv_weight_to_fp16_palettized = constexpr_lut_to_dense()[indices = tensor<uint8, [9216]>(BLOBFILE(path = tensor<string, []>("@model_path/weights/weight.bin"), offset = tensor<uint64, []>(281088))), lut = tensor<fp16, [256]>(BLOBFILE(path = tensor<string, []>("@model_path/weights/weight.bin"), offset = tensor<uint64, []>(290368))), name = tensor<string, []>("model_6_m_0_m_1_cv2_conv_weight_to_fp16_palettized"), shape = tensor<uint32, [4]>([32, 32, 3, 3])];
            tensor<fp16, [32]> model_6_m_0_m_1_cv2_conv_bias_to_fp16 = const()[name = tensor<string, []>("model_6_m_0_m_1_cv2_conv_bias_to_fp16"), val = tensor<fp16, [32]>(BLOBFILE(path = tensor<string, []>("@model_path/weights/weight.bin"), offset = tensor<uint64, []>(290944)))];
            tensor<fp16, [1, 32, 40, 24]> input_69_cast_fp16 = conv(bias = model_6_m_0_m_1_cv2_conv_bias_to_fp16, dilations = var_276, groups = var_206, pad = input_69_pad_0, pad_type = input_69_pad_type_0, strides = var_274, weight = model_6_m_0_m_1_cv2_conv_weight_to_fp16_palettized, x = input_67_cast_fp16)[name = tensor<string, []>("input_69_cast_fp16")];
            tensor<fp16, [1, 32, 40, 24]> var_279_cast_fp16 = silu(x = input_69_cast_fp16)[name = tensor<string, []>("op_279_cast_fp16")];
            tensor<fp16, [1, 32, 40, 24]> var_280_cast_fp16 = add(x = input_63_cast_fp16, y = var_279_cast_fp16)[name = tensor<string, []>("op_280_cast_fp16")];
            tensor<int32, [2]> var_284 = const()[name = tensor<string, []>("op_284"), val = tensor<int32, [2]>([1, 1])];
            tensor<int32, [2]> var_286 = const()[name = tensor<string, []>("op_286"), val = tensor<int32, [2]>([1, 1])];
            tensor<string, []> input_71_pad_type_0 = const()[name = tensor<string, []>("input_71_pad_type_0"), val = tensor<string, []>("custom")];
            tensor<int32, [4]> input_71_pad_0 = const()[name = tensor<string, []>("input_71_pad_0"), val = tensor<int32, [4]>([0, 0, 0, 0])];
            tensor<fp16, [32, 64, 1, 1]> model_6_m_0_cv2_conv_weight_to_fp16_palettized = constexpr_lut_to_dense()[indices = tensor<uint8, [2048]>(BLOBFILE(path = tensor<string, []>("@model_path/weights/weight.bin"), offset = tensor<uint64, []>(291072))), lut = tensor<fp16, [256]>(BLOBFILE(path = tensor<string, []>("@model_path/weights/weight.bin"), offset = tensor<uint64, []>(293184))), name = tensor<string, []>("model_6_m_0_cv2_conv_weight_to_fp16_palettized"), shape = tensor<uint32, [4]>([32, 64, 1, 1])];
            tensor<fp16, [32]> model_6_m_0_cv2_conv_bias_to_fp16 = const()[name = tensor<string, []>("model_6_m_0_cv2_conv_bias_to_fp16"), val = tensor<fp16, [32]>(BLOBFILE(path = tensor<string, []>("@model_path/weights/weight.bin"), offset = tensor<uint64, []>(293760)))];
            tensor<fp16, [1, 32, 40, 24]> input_71_cast_fp16 = conv(bias = model_6_m_0_cv2_conv_bias_to_fp16, dilations = var_286, groups = var_206, pad = input_71_pad_0, pad_type = input_71_pad_type_0, strides = var_284, weight = model_6_m_0_cv2_conv_weight_to_fp16_palettized, x = var_221_cast_fp16_1)[name = tensor<string, []>("input_71_cast_fp16")];
            tensor<fp16, [1, 32, 40, 24]> var_289_cast_fp16 = silu(x = input_71_cast_fp16)[name = tensor<string, []>("op_289_cast_fp16")];
            tensor<bool, []> input_73_interleave_0 = const()[name = tensor<string, []>("input_73_interleave_0"), val = tensor<bool, []>(false)];
            tensor<fp16, [1, 64, 40, 24]> input_73_cast_fp16 = concat(axis = var_206, interleave = input_73_interleave_0, values = (var_280_cast_fp16, var_289_cast_fp16))[name = tensor<string, []>("input_73_cast_fp16")];
            tensor<int32, [2]> var_295 = const()[name = tensor<string, []>("op_295"), val = tensor<int32, [2]>([1, 1])];
            tensor<int32, [2]> var_297 = const()[name = tensor<string, []>("op_297"), val = tensor<int32, [2]>([1, 1])];
            tensor<string, []> input_75_pad_type_0 = const()[name = tensor<string, []>("input_75_pad_type_0"), val = tensor<string, []>("custom")];
            tensor<int32, [4]> input_75_pad_0 = const()[name = tensor<string, []>("input_75_pad_0"), val = tensor<int32, [4]>([0, 0, 0, 0])];
            tensor<fp16, [64, 64, 1, 1]> model_6_m_0_cv3_conv_weight_to_fp16_palettized = constexpr_lut_to_dense()[indices = tensor<uint8, [4096]>(BLOBFILE(path = tensor<string, []>("@model_path/weights/weight.bin"), offset = tensor<uint64, []>(293888))), lut = tensor<fp16, [256]>(BLOBFILE(path = tensor<string, []>("@model_path/weights/weight.bin"), offset = tensor<uint64, []>(298048))), name = tensor<string, []>("model_6_m_0_cv3_conv_weight_to_fp16_palettized"), shape = tensor<uint32, [4]>([64, 64, 1, 1])];
            tensor<fp16, [64]> model_6_m_0_cv3_conv_bias_to_fp16 = const()[name = tensor<string, []>("model_6_m_0_cv3_conv_bias_to_fp16"), val = tensor<fp16, [64]>(BLOBFILE(path = tensor<string, []>("@model_path/weights/weight.bin"), offset = tensor<uint64, []>(298624)))];
            tensor<fp16, [1, 64, 40, 24]> input_75_cast_fp16 = conv(bias = model_6_m_0_cv3_conv_bias_to_fp16, dilations = var_297, groups = var_206, pad = input_75_pad_0, pad_type = input_75_pad_type_0, strides = var_295, weight = model_6_m_0_cv3_conv_weight_to_fp16_palettized, x = input_73_cast_fp16)[name = tensor<string, []>("input_75_cast_fp16")];
            tensor<fp16, [1, 64, 40, 24]> var_300_cast_fp16 = silu(x = input_75_cast_fp16)[name = tensor<string, []>("op_300_cast_fp16")];
            tensor<bool, []> input_77_interleave_0 = const()[name = tensor<string, []>("input_77_interleave_0"), val = tensor<bool, []>(false)];
            tensor<fp16, [1, 192, 40, 24]> input_77_cast_fp16 = concat(axis = var_206, interleave = input_77_interleave_0, values = (var_221_cast_fp16_0, var_221_cast_fp16_1, var_300_cast_fp16))[name = tensor<string, []>("input_77_cast_fp16")];
            tensor<int32, [2]> var_306 = const()[name = tensor<string, []>("op_306"), val = tensor<int32, [2]>([1, 1])];
            tensor<int32, [2]> var_308 = const()[name = tensor<string, []>("op_308"), val = tensor<int32, [2]>([1, 1])];
            tensor<string, []> input_79_pad_type_0 = const()[name = tensor<string, []>("input_79_pad_type_0"), val = tensor<string, []>("custom")];
            tensor<int32, [4]> input_79_pad_0 = const()[name = tensor<string, []>("input_79_pad_0"), val = tensor<int32, [4]>([0, 0, 0, 0])];
            tensor<fp16, [128, 192, 1, 1]> model_6_cv2_conv_weight_to_fp16_palettized = constexpr_lut_to_dense()[indices = tensor<uint8, [24576]>(BLOBFILE(path = tensor<string, []>("@model_path/weights/weight.bin"), offset = tensor<uint64, []>(298816))), lut = tensor<fp16, [256]>(BLOBFILE(path = tensor<string, []>("@model_path/weights/weight.bin"), offset = tensor<uint64, []>(323456))), name = tensor<string, []>("model_6_cv2_conv_weight_to_fp16_palettized"), shape = tensor<uint32, [4]>([128, 192, 1, 1])];
            tensor<fp16, [128]> model_6_cv2_conv_bias_to_fp16 = const()[name = tensor<string, []>("model_6_cv2_conv_bias_to_fp16"), val = tensor<fp16, [128]>(BLOBFILE(path = tensor<string, []>("@model_path/weights/weight.bin"), offset = tensor<uint64, []>(324032)))];
            tensor<fp16, [1, 128, 40, 24]> input_79_cast_fp16 = conv(bias = model_6_cv2_conv_bias_to_fp16, dilations = var_308, groups = var_206, pad = input_79_pad_0, pad_type = input_79_pad_type_0, strides = var_306, weight = model_6_cv2_conv_weight_to_fp16_palettized, x = input_77_cast_fp16)[name = tensor<string, []>("input_79_cast_fp16")];
            tensor<fp16, [1, 128, 40, 24]> input_81_cast_fp16 = silu(x = input_79_cast_fp16)[name = tensor<string, []>("input_81_cast_fp16")];
            tensor<int32, []> var_313 = const()[name = tensor<string, []>("op_313"), val = tensor<int32, []>(1)];
            tensor<int32, [2]> var_320 = const()[name = tensor<string, []>("op_320"), val = tensor<int32, [2]>([2, 2])];
            tensor<int32, [2]> var_322 = const()[name = tensor<string, []>("op_322"), val = tensor<int32, [2]>([1, 1])];
            tensor<string, []> input_83_pad_type_0 = const()[name = tensor<string, []>("input_83_pad_type_0"), val = tensor<string, []>("custom")];
            tensor<int32, [4]> input_83_pad_0 = const()[name = tensor<string, []>("input_83_pad_0"), val = tensor<int32, [4]>([1, 1, 1, 1])];
            tensor<fp16, [256, 128, 3, 3]> model_7_conv_weight_to_fp16_palettized = constexpr_lut_to_dense()[indices = tensor<uint8, [294912]>(BLOBFILE(path = tensor<string, []>("@model_path/weights/weight.bin"), offset = tensor<uint64, []>(324352))), lut = tensor<fp16, [256]>(BLOBFILE(path = tensor<string, []>("@model_path/weights/weight.bin"), offset = tensor<uint64, []>(619328))), name = tensor<string, []>("model_7_conv_weight_to_fp16_palettized"), shape = tensor<uint32, [4]>([256, 128, 3, 3])];
            tensor<fp16, [256]> model_7_conv_bias_to_fp16 = const()[name = tensor<string, []>("model_7_conv_bias_to_fp16"), val = tensor<fp16, [256]>(BLOBFILE(path = tensor<string, []>("@model_path/weights/weight.bin"), offset = tensor<uint64, []>(619904)))];
            tensor<fp16, [1, 256, 20, 12]> input_83_cast_fp16 = conv(bias = model_7_conv_bias_to_fp16, dilations = var_322, groups = var_313, pad = input_83_pad_0, pad_type = input_83_pad_type_0, strides = var_320, weight = model_7_conv_weight_to_fp16_palettized, x = input_81_cast_fp16)[name = tensor<string, []>("input_83_cast_fp16")];
            tensor<fp16, [1, 256, 20, 12]> input_85_cast_fp16 = silu(x = input_83_cast_fp16)[name = tensor<string, []>("input_85_cast_fp16")];
            tensor<int32, []> var_330 = const()[name = tensor<string, []>("op_330"), val = tensor<int32, []>(1)];
            tensor<int32, [2]> var_338 = const()[name = tensor<string, []>("op_338"), val = tensor<int32, [2]>([1, 1])];
            tensor<int32, [2]> var_340 = const()[name = tensor<string, []>("op_340"), val = tensor<int32, [2]>([1, 1])];
            tensor<string, []> input_87_pad_type_0 = const()[name = tensor<string, []>("input_87_pad_type_0"), val = tensor<string, []>("custom")];
            tensor<int32, [4]> input_87_pad_0 = const()[name = tensor<string, []>("input_87_pad_0"), val = tensor<int32, [4]>([0, 0, 0, 0])];
            tensor<fp16, [256, 256, 1, 1]> model_8_cv1_conv_weight_to_fp16_palettized = constexpr_lut_to_dense()[indices = tensor<uint8, [65536]>(BLOBFILE(path = tensor<string, []>("@model_path/weights/weight.bin"), offset = tensor<uint64, []>(620480))), lut = tensor<fp16, [256]>(BLOBFILE(path = tensor<string, []>("@model_path/weights/weight.bin"), offset = tensor<uint64, []>(686080))), name = tensor<string, []>("model_8_cv1_conv_weight_to_fp16_palettized"), shape = tensor<uint32, [4]>([256, 256, 1, 1])];
            tensor<fp16, [256]> model_8_cv1_conv_bias_to_fp16 = const()[name = tensor<string, []>("model_8_cv1_conv_bias_to_fp16"), val = tensor<fp16, [256]>(BLOBFILE(path = tensor<string, []>("@model_path/weights/weight.bin"), offset = tensor<uint64, []>(686656)))];
            tensor<fp16, [1, 256, 20, 12]> input_87_cast_fp16 = conv(bias = model_8_cv1_conv_bias_to_fp16, dilations = var_340, groups = var_330, pad = input_87_pad_0, pad_type = input_87_pad_type_0, strides = var_338, weight = model_8_cv1_conv_weight_to_fp16_palettized, x = input_85_cast_fp16)[name = tensor<string, []>("input_87_cast_fp16")];
            tensor<fp16, [1, 256, 20, 12]> var_343_cast_fp16 = silu(x = input_87_cast_fp16)[name = tensor<string, []>("op_343_cast_fp16")];
            tensor<int32, [2]> var_344 = const()[name = tensor<string, []>("op_344"), val = tensor<int32, [2]>([128, 128])];
            tensor<int32, []> var_345_axis_0 = const()[name = tensor<string, []>("op_345_axis_0"), val = tensor<int32, []>(1)];
            tensor<fp16, [1, 128, 20, 12]> var_345_cast_fp16_0, tensor<fp16, [1, 128, 20, 12]> var_345_cast_fp16_1 = split(axis = var_345_axis_0, split_sizes = var_344, x = var_343_cast_fp16)[name = tensor<string, []>("op_345_cast_fp16")];
            tensor<int32, [2]> var_355 = const()[name = tensor<string, []>("op_355"), val = tensor<int32, [2]>([1, 1])];
            tensor<int32, [2]> var_357 = const()[name = tensor<string, []>("op_357"), val = tensor<int32, [2]>([1, 1])];
            tensor<string, []> input_91_pad_type_0 = const()[name = tensor<string, []>("input_91_pad_type_0"), val = tensor<string, []>("custom")];
            tensor<int32, [4]> input_91_pad_0 = const()[name = tensor<string, []>("input_91_pad_0"), val = tensor<int32, [4]>([0, 0, 0, 0])];
            tensor<fp16, [64, 128, 1, 1]> model_8_m_0_cv1_conv_weight_to_fp16_palettized = constexpr_lut_to_dense()[indices = tensor<uint8, [8192]>(BLOBFILE(path = tensor<string, []>("@model_path/weights/weight.bin"), offset = tensor<uint64, []>(687232))), lut = tensor<fp16, [256]>(BLOBFILE(path = tensor<string, []>("@model_path/weights/weight.bin"), offset = tensor<uint64, []>(695488))), name = tensor<string, []>("model_8_m_0_cv1_conv_weight_to_fp16_palettized"), shape = tensor<uint32, [4]>([64, 128, 1, 1])];
            tensor<fp16, [64]> model_8_m_0_cv1_conv_bias_to_fp16 = const()[name = tensor<string, []>("model_8_m_0_cv1_conv_bias_to_fp16"), val = tensor<fp16, [64]>(BLOBFILE(path = tensor<string, []>("@model_path/weights/weight.bin"), offset = tensor<uint64, []>(696064)))];
            tensor<fp16, [1, 64, 20, 12]> input_91_cast_fp16 = conv(bias = model_8_m_0_cv1_conv_bias_to_fp16, dilations = var_357, groups = var_330, pad = input_91_pad_0, pad_type = input_91_pad_type_0, strides = var_355, weight = model_8_m_0_cv1_conv_weight_to_fp16_palettized, x = var_345_cast_fp16_1)[name = tensor<string, []>("input_91_cast_fp16")];
            tensor<fp16, [1, 64, 20, 12]> input_93_cast_fp16 = silu(x = input_91_cast_fp16)[name = tensor<string, []>("input_93_cast_fp16")];
            tensor<int32, [2]> var_368 = const()[name = tensor<string, []>("op_368"), val = tensor<int32, [2]>([1, 1])];
            tensor<int32, [2]> var_370 = const()[name = tensor<string, []>("op_370"), val = tensor<int32, [2]>([1, 1])];
            tensor<string, []> input_95_pad_type_0 = const()[name = tensor<string, []>("input_95_pad_type_0"), val = tensor<string, []>("custom")];
            tensor<int32, [4]> input_95_pad_0 = const()[name = tensor<string, []>("input_95_pad_0"), val = tensor<int32, [4]>([1, 1, 1, 1])];
            tensor<fp16, [64, 64, 3, 3]> model_8_m_0_m_0_cv1_conv_weight_to_fp16_palettized = constexpr_lut_to_dense()[indices = tensor<uint8, [36864]>(BLOBFILE(path = tensor<string, []>("@model_path/weights/weight.bin"), offset = tensor<uint64, []>(696256))), lut = tensor<fp16, [256]>(BLOBFILE(path = tensor<string, []>("@model_path/weights/weight.bin"), offset = tensor<uint64, []>(733184))), name = tensor<string, []>("model_8_m_0_m_0_cv1_conv_weight_to_fp16_palettized"), shape = tensor<uint32, [4]>([64, 64, 3, 3])];
            tensor<fp16, [64]> model_8_m_0_m_0_cv1_conv_bias_to_fp16 = const()[name = tensor<string, []>("model_8_m_0_m_0_cv1_conv_bias_to_fp16"), val = tensor<fp16, [64]>(BLOBFILE(path = tensor<string, []>("@model_path/weights/weight.bin"), offset = tensor<uint64, []>(733760)))];
            tensor<fp16, [1, 64, 20, 12]> input_95_cast_fp16 = conv(bias = model_8_m_0_m_0_cv1_conv_bias_to_fp16, dilations = var_370, groups = var_330, pad = input_95_pad_0, pad_type = input_95_pad_type_0, strides = var_368, weight = model_8_m_0_m_0_cv1_conv_weight_to_fp16_palettized, x = input_93_cast_fp16)[name = tensor<string, []>("input_95_cast_fp16")];
            tensor<fp16, [1, 64, 20, 12]> input_97_cast_fp16 = silu(x = input_95_cast_fp16)[name = tensor<string, []>("input_97_cast_fp16")];
            tensor<int32, [2]> var_377 = const()[name = tensor<string, []>("op_377"), val = tensor<int32, [2]>([1, 1])];
            tensor<int32, [2]> var_379 = const()[name = tensor<string, []>("op_379"), val = tensor<int32, [2]>([1, 1])];
            tensor<string, []> input_99_pad_type_0 = const()[name = tensor<string, []>("input_99_pad_type_0"), val = tensor<string, []>("custom")];
            tensor<int32, [4]> input_99_pad_0 = const()[name = tensor<string, []>("input_99_pad_0"), val = tensor<int32, [4]>([1, 1, 1, 1])];
            tensor<fp16, [64, 64, 3, 3]> model_8_m_0_m_0_cv2_conv_weight_to_fp16_palettized = constexpr_lut_to_dense()[indices = tensor<uint8, [36864]>(BLOBFILE(path = tensor<string, []>("@model_path/weights/weight.bin"), offset = tensor<uint64, []>(733952))), lut = tensor<fp16, [256]>(BLOBFILE(path = tensor<string, []>("@model_path/weights/weight.bin"), offset = tensor<uint64, []>(770880))), name = tensor<string, []>("model_8_m_0_m_0_cv2_conv_weight_to_fp16_palettized"), shape = tensor<uint32, [4]>([64, 64, 3, 3])];
            tensor<fp16, [64]> model_8_m_0_m_0_cv2_conv_bias_to_fp16 = const()[name = tensor<string, []>("model_8_m_0_m_0_cv2_conv_bias_to_fp16"), val = tensor<fp16, [64]>(BLOBFILE(path = tensor<string, []>("@model_path/weights/weight.bin"), offset = tensor<uint64, []>(771456)))];
            tensor<fp16, [1, 64, 20, 12]> input_99_cast_fp16 = conv(bias = model_8_m_0_m_0_cv2_conv_bias_to_fp16, dilations = var_379, groups = var_330, pad = input_99_pad_0, pad_type = input_99_pad_type_0, strides = var_377, weight = model_8_m_0_m_0_cv2_conv_weight_to_fp16_palettized, x = input_97_cast_fp16)[name = tensor<string, []>("input_99_cast_fp16")];
            tensor<fp16, [1, 64, 20, 12]> var_382_cast_fp16 = silu(x = input_99_cast_fp16)[name = tensor<string, []>("op_382_cast_fp16")];
            tensor<fp16, [1, 64, 20, 12]> input_101_cast_fp16 = add(x = input_93_cast_fp16, y = var_382_cast_fp16)[name = tensor<string, []>("input_101_cast_fp16")];
            tensor<int32, [2]> var_389 = const()[name = tensor<string, []>("op_389"), val = tensor<int32, [2]>([1, 1])];
            tensor<int32, [2]> var_391 = const()[name = tensor<string, []>("op_391"), val = tensor<int32, [2]>([1, 1])];
            tensor<string, []> input_103_pad_type_0 = const()[name = tensor<string, []>("input_103_pad_type_0"), val = tensor<string, []>("custom")];
            tensor<int32, [4]> input_103_pad_0 = const()[name = tensor<string, []>("input_103_pad_0"), val = tensor<int32, [4]>([1, 1, 1, 1])];
            tensor<fp16, [64, 64, 3, 3]> model_8_m_0_m_1_cv1_conv_weight_to_fp16_palettized = constexpr_lut_to_dense()[indices = tensor<uint8, [36864]>(BLOBFILE(path = tensor<string, []>("@model_path/weights/weight.bin"), offset = tensor<uint64, []>(771648))), lut = tensor<fp16, [256]>(BLOBFILE(path = tensor<string, []>("@model_path/weights/weight.bin"), offset = tensor<uint64, []>(808576))), name = tensor<string, []>("model_8_m_0_m_1_cv1_conv_weight_to_fp16_palettized"), shape = tensor<uint32, [4]>([64, 64, 3, 3])];
            tensor<fp16, [64]> model_8_m_0_m_1_cv1_conv_bias_to_fp16 = const()[name = tensor<string, []>("model_8_m_0_m_1_cv1_conv_bias_to_fp16"), val = tensor<fp16, [64]>(BLOBFILE(path = tensor<string, []>("@model_path/weights/weight.bin"), offset = tensor<uint64, []>(809152)))];
            tensor<fp16, [1, 64, 20, 12]> input_103_cast_fp16 = conv(bias = model_8_m_0_m_1_cv1_conv_bias_to_fp16, dilations = var_391, groups = var_330, pad = input_103_pad_0, pad_type = input_103_pad_type_0, strides = var_389, weight = model_8_m_0_m_1_cv1_conv_weight_to_fp16_palettized, x = input_101_cast_fp16)[name = tensor<string, []>("input_103_cast_fp16")];
            tensor<fp16, [1, 64, 20, 12]> input_105_cast_fp16 = silu(x = input_103_cast_fp16)[name = tensor<string, []>("input_105_cast_fp16")];
            tensor<int32, [2]> var_398 = const()[name = tensor<string, []>("op_398"), val = tensor<int32, [2]>([1, 1])];
            tensor<int32, [2]> var_400 = const()[name = tensor<string, []>("op_400"), val = tensor<int32, [2]>([1, 1])];
            tensor<string, []> input_107_pad_type_0 = const()[name = tensor<string, []>("input_107_pad_type_0"), val = tensor<string, []>("custom")];
            tensor<int32, [4]> input_107_pad_0 = const()[name = tensor<string, []>("input_107_pad_0"), val = tensor<int32, [4]>([1, 1, 1, 1])];
            tensor<fp16, [64, 64, 3, 3]> model_8_m_0_m_1_cv2_conv_weight_to_fp16_palettized = constexpr_lut_to_dense()[indices = tensor<uint8, [36864]>(BLOBFILE(path = tensor<string, []>("@model_path/weights/weight.bin"), offset = tensor<uint64, []>(809344))), lut = tensor<fp16, [256]>(BLOBFILE(path = tensor<string, []>("@model_path/weights/weight.bin"), offset = tensor<uint64, []>(846272))), name = tensor<string, []>("model_8_m_0_m_1_cv2_conv_weight_to_fp16_palettized"), shape = tensor<uint32, [4]>([64, 64, 3, 3])];
            tensor<fp16, [64]> model_8_m_0_m_1_cv2_conv_bias_to_fp16 = const()[name = tensor<string, []>("model_8_m_0_m_1_cv2_conv_bias_to_fp16"), val = tensor<fp16, [64]>(BLOBFILE(path = tensor<string, []>("@model_path/weights/weight.bin"), offset = tensor<uint64, []>(846848)))];
            tensor<fp16, [1, 64, 20, 12]> input_107_cast_fp16 = conv(bias = model_8_m_0_m_1_cv2_conv_bias_to_fp16, dilations = var_400, groups = var_330, pad = input_107_pad_0, pad_type = input_107_pad_type_0, strides = var_398, weight = model_8_m_0_m_1_cv2_conv_weight_to_fp16_palettized, x = input_105_cast_fp16)[name = tensor<string, []>("input_107_cast_fp16")];
            tensor<fp16, [1, 64, 20, 12]> var_403_cast_fp16 = silu(x = input_107_cast_fp16)[name = tensor<string, []>("op_403_cast_fp16")];
            tensor<fp16, [1, 64, 20, 12]> var_404_cast_fp16 = add(x = input_101_cast_fp16, y = var_403_cast_fp16)[name = tensor<string, []>("op_404_cast_fp16")];
            tensor<int32, [2]> var_408 = const()[name = tensor<string, []>("op_408"), val = tensor<int32, [2]>([1, 1])];
            tensor<int32, [2]> var_410 = const()[name = tensor<string, []>("op_410"), val = tensor<int32, [2]>([1, 1])];
            tensor<string, []> input_109_pad_type_0 = const()[name = tensor<string, []>("input_109_pad_type_0"), val = tensor<string, []>("custom")];
            tensor<int32, [4]> input_109_pad_0 = const()[name = tensor<string, []>("input_109_pad_0"), val = tensor<int32, [4]>([0, 0, 0, 0])];
            tensor<fp16, [64, 128, 1, 1]> model_8_m_0_cv2_conv_weight_to_fp16_palettized = constexpr_lut_to_dense()[indices = tensor<uint8, [8192]>(BLOBFILE(path = tensor<string, []>("@model_path/weights/weight.bin"), offset = tensor<uint64, []>(847040))), lut = tensor<fp16, [256]>(BLOBFILE(path = tensor<string, []>("@model_path/weights/weight.bin"), offset = tensor<uint64, []>(855296))), name = tensor<string, []>("model_8_m_0_cv2_conv_weight_to_fp16_palettized"), shape = tensor<uint32, [4]>([64, 128, 1, 1])];
            tensor<fp16, [64]> model_8_m_0_cv2_conv_bias_to_fp16 = const()[name = tensor<string, []>("model_8_m_0_cv2_conv_bias_to_fp16"), val = tensor<fp16, [64]>(BLOBFILE(path = tensor<string, []>("@model_path/weights/weight.bin"), offset = tensor<uint64, []>(855872)))];
            tensor<fp16, [1, 64, 20, 12]> input_109_cast_fp16 = conv(bias = model_8_m_0_cv2_conv_bias_to_fp16, dilations = var_410, groups = var_330, pad = input_109_pad_0, pad_type = input_109_pad_type_0, strides = var_408, weight = model_8_m_0_cv2_conv_weight_to_fp16_palettized, x = var_345_cast_fp16_1)[name = tensor<string, []>("input_109_cast_fp16")];
            tensor<fp16, [1, 64, 20, 12]> var_413_cast_fp16 = silu(x = input_109_cast_fp16)[name = tensor<string, []>("op_413_cast_fp16")];
            tensor<bool, []> input_111_interleave_0 = const()[name = tensor<string, []>("input_111_interleave_0"), val = tensor<bool, []>(false)];
            tensor<fp16, [1, 128, 20, 12]> input_111_cast_fp16 = concat(axis = var_330, interleave = input_111_interleave_0, values = (var_404_cast_fp16, var_413_cast_fp16))[name = tensor<string, []>("input_111_cast_fp16")];
            tensor<int32, [2]> var_419 = const()[name = tensor<string, []>("op_419"), val = tensor<int32, [2]>([1, 1])];
            tensor<int32, [2]> var_421 = const()[name = tensor<string, []>("op_421"), val = tensor<int32, [2]>([1, 1])];
            tensor<string, []> input_113_pad_type_0 = const()[name = tensor<string, []>("input_113_pad_type_0"), val = tensor<string, []>("custom")];
            tensor<int32, [4]> input_113_pad_0 = const()[name = tensor<string, []>("input_113_pad_0"), val = tensor<int32, [4]>([0, 0, 0, 0])];
            tensor<fp16, [128, 128, 1, 1]> model_8_m_0_cv3_conv_weight_to_fp16_palettized = constexpr_lut_to_dense()[indices = tensor<uint8, [16384]>(BLOBFILE(path = tensor<string, []>("@model_path/weights/weight.bin"), offset = tensor<uint64, []>(856064))), lut = tensor<fp16, [256]>(BLOBFILE(path = tensor<string, []>("@model_path/weights/weight.bin"), offset = tensor<uint64, []>(872512))), name = tensor<string, []>("model_8_m_0_cv3_conv_weight_to_fp16_palettized"), shape = tensor<uint32, [4]>([128, 128, 1, 1])];
            tensor<fp16, [128]> model_8_m_0_cv3_conv_bias_to_fp16 = const()[name = tensor<string, []>("model_8_m_0_cv3_conv_bias_to_fp16"), val = tensor<fp16, [128]>(BLOBFILE(path = tensor<string, []>("@model_path/weights/weight.bin"), offset = tensor<uint64, []>(873088)))];
            tensor<fp16, [1, 128, 20, 12]> input_113_cast_fp16 = conv(bias = model_8_m_0_cv3_conv_bias_to_fp16, dilations = var_421, groups = var_330, pad = input_113_pad_0, pad_type = input_113_pad_type_0, strides = var_419, weight = model_8_m_0_cv3_conv_weight_to_fp16_palettized, x = input_111_cast_fp16)[name = tensor<string, []>("input_113_cast_fp16")];
            tensor<fp16, [1, 128, 20, 12]> var_424_cast_fp16 = silu(x = input_113_cast_fp16)[name = tensor<string, []>("op_424_cast_fp16")];
            tensor<bool, []> input_115_interleave_0 = const()[name = tensor<string, []>("input_115_interleave_0"), val = tensor<bool, []>(false)];
            tensor<fp16, [1, 384, 20, 12]> input_115_cast_fp16 = concat(axis = var_330, interleave = input_115_interleave_0, values = (var_345_cast_fp16_0, var_345_cast_fp16_1, var_424_cast_fp16))[name = tensor<string, []>("input_115_cast_fp16")];
            tensor<int32, [2]> var_430 = const()[name = tensor<string, []>("op_430"), val = tensor<int32, [2]>([1, 1])];
            tensor<int32, [2]> var_432 = const()[name = tensor<string, []>("op_432"), val = tensor<int32, [2]>([1, 1])];
            tensor<string, []> input_117_pad_type_0 = const()[name = tensor<string, []>("input_117_pad_type_0"), val = tensor<string, []>("custom")];
            tensor<int32, [4]> input_117_pad_0 = const()[name = tensor<string, []>("input_117_pad_0"), val = tensor<int32, [4]>([0, 0, 0, 0])];
            tensor<fp16, [256, 384, 1, 1]> model_8_cv2_conv_weight_to_fp16_palettized = constexpr_lut_to_dense()[indices = tensor<uint8, [98304]>(BLOBFILE(path = tensor<string, []>("@model_path/weights/weight.bin"), offset = tensor<uint64, []>(873408))), lut = tensor<fp16, [256]>(BLOBFILE(path = tensor<string, []>("@model_path/weights/weight.bin"), offset = tensor<uint64, []>(971776))), name = tensor<string, []>("model_8_cv2_conv_weight_to_fp16_palettized"), shape = tensor<uint32, [4]>([256, 384, 1, 1])];
            tensor<fp16, [256]> model_8_cv2_conv_bias_to_fp16 = const()[name = tensor<string, []>("model_8_cv2_conv_bias_to_fp16"), val = tensor<fp16, [256]>(BLOBFILE(path = tensor<string, []>("@model_path/weights/weight.bin"), offset = tensor<uint64, []>(972352)))];
            tensor<fp16, [1, 256, 20, 12]> input_117_cast_fp16 = conv(bias = model_8_cv2_conv_bias_to_fp16, dilations = var_432, groups = var_330, pad = input_117_pad_0, pad_type = input_117_pad_type_0, strides = var_430, weight = model_8_cv2_conv_weight_to_fp16_palettized, x = input_115_cast_fp16)[name = tensor<string, []>("input_117_cast_fp16")];
            tensor<fp16, [1, 256, 20, 12]> input_119_cast_fp16 = silu(x = input_117_cast_fp16)[name = tensor<string, []>("input_119_cast_fp16")];
            tensor<int32, []> var_441 = const()[name = tensor<string, []>("op_441"), val = tensor<int32, []>(1)];
            tensor<int32, [2]> var_447 = const()[name = tensor<string, []>("op_447"), val = tensor<int32, [2]>([1, 1])];
            tensor<int32, [2]> var_449 = const()[name = tensor<string, []>("op_449"), val = tensor<int32, [2]>([1, 1])];
            tensor<string, []> input_121_pad_type_0 = const()[name = tensor<string, []>("input_121_pad_type_0"), val = tensor<string, []>("custom")];
            tensor<int32, [4]> input_121_pad_0 = const()[name = tensor<string, []>("input_121_pad_0"), val = tensor<int32, [4]>([0, 0, 0, 0])];
            tensor<fp16, [128, 256, 1, 1]> model_9_cv1_conv_weight_to_fp16_palettized = constexpr_lut_to_dense()[indices = tensor<uint8, [32768]>(BLOBFILE(path = tensor<string, []>("@model_path/weights/weight.bin"), offset = tensor<uint64, []>(972928))), lut = tensor<fp16, [256]>(BLOBFILE(path = tensor<string, []>("@model_path/weights/weight.bin"), offset = tensor<uint64, []>(1005760))), name = tensor<string, []>("model_9_cv1_conv_weight_to_fp16_palettized"), shape = tensor<uint32, [4]>([128, 256, 1, 1])];
            tensor<fp16, [128]> model_9_cv1_conv_bias_to_fp16 = const()[name = tensor<string, []>("model_9_cv1_conv_bias_to_fp16"), val = tensor<fp16, [128]>(BLOBFILE(path = tensor<string, []>("@model_path/weights/weight.bin"), offset = tensor<uint64, []>(1006336)))];
            tensor<fp16, [1, 128, 20, 12]> input_121_cast_fp16 = conv(bias = model_9_cv1_conv_bias_to_fp16, dilations = var_449, groups = var_441, pad = input_121_pad_0, pad_type = input_121_pad_type_0, strides = var_447, weight = model_9_cv1_conv_weight_to_fp16_palettized, x = input_119_cast_fp16)[name = tensor<string, []>("input_121_cast_fp16")];
            tensor<fp16, [1, 128, 20, 12]> input_123_cast_fp16 = silu(x = input_121_cast_fp16)[name = tensor<string, []>("input_123_cast_fp16")];
            tensor<int32, [2]> var_453 = const()[name = tensor<string, []>("op_453"), val = tensor<int32, [2]>([5, 5])];
            tensor<int32, [2]> var_454 = const()[name = tensor<string, []>("op_454"), val = tensor<int32, [2]>([1, 1])];
            tensor<string, []> input_125_pad_type_0 = const()[name = tensor<string, []>("input_125_pad_type_0"), val = tensor<string, []>("custom")];
            tensor<int32, [4]> input_125_pad_0 = const()[name = tensor<string, []>("input_125_pad_0"), val = tensor<int32, [4]>([2, 2, 2, 2])];
            tensor<bool, []> input_125_ceil_mode_0 = const()[name = tensor<string, []>("input_125_ceil_mode_0"), val = tensor<bool, []>(false)];
            tensor<fp16, [1, 128, 20, 12]> input_125_cast_fp16 = max_pool(ceil_mode = input_125_ceil_mode_0, kernel_sizes = var_453, pad = input_125_pad_0, pad_type = input_125_pad_type_0, strides = var_454, x = input_123_cast_fp16)[name = tensor<string, []>("input_125_cast_fp16")];
            tensor<int32, [2]> var_458 = const()[name = tensor<string, []>("op_458"), val = tensor<int32, [2]>([5, 5])];
            tensor<int32, [2]> var_459 = const()[name = tensor<string, []>("op_459"), val = tensor<int32, [2]>([1, 1])];
            tensor<string, []> input_127_pad_type_0 = const()[name = tensor<string, []>("input_127_pad_type_0"), val = tensor<string, []>("custom")];
            tensor<int32, [4]> input_127_pad_0 = const()[name = tensor<string, []>("input_127_pad_0"), val = tensor<int32, [4]>([2, 2, 2, 2])];
            tensor<bool, []> input_127_ceil_mode_0 = const()[name = tensor<string, []>("input_127_ceil_mode_0"), val = tensor<bool, []>(false)];
            tensor<fp16, [1, 128, 20, 12]> input_127_cast_fp16 = max_pool(ceil_mode = input_127_ceil_mode_0, kernel_sizes = var_458, pad = input_127_pad_0, pad_type = input_127_pad_type_0, strides = var_459, x = input_125_cast_fp16)[name = tensor<string, []>("input_127_cast_fp16")];
            tensor<int32, [2]> var_463 = const()[name = tensor<string, []>("op_463"), val = tensor<int32, [2]>([5, 5])];
            tensor<int32, [2]> var_464 = const()[name = tensor<string, []>("op_464"), val = tensor<int32, [2]>([1, 1])];
            tensor<string, []> var_467_pad_type_0 = const()[name = tensor<string, []>("op_467_pad_type_0"), val = tensor<string, []>("custom")];
            tensor<int32, [4]> var_467_pad_0 = const()[name = tensor<string, []>("op_467_pad_0"), val = tensor<int32, [4]>([2, 2, 2, 2])];
            tensor<bool, []> var_467_ceil_mode_0 = const()[name = tensor<string, []>("op_467_ceil_mode_0"), val = tensor<bool, []>(false)];
            tensor<fp16, [1, 128, 20, 12]> var_467_cast_fp16 = max_pool(ceil_mode = var_467_ceil_mode_0, kernel_sizes = var_463, pad = var_467_pad_0, pad_type = var_467_pad_type_0, strides = var_464, x = input_127_cast_fp16)[name = tensor<string, []>("op_467_cast_fp16")];
            tensor<bool, []> input_129_interleave_0 = const()[name = tensor<string, []>("input_129_interleave_0"), val = tensor<bool, []>(false)];
            tensor<fp16, [1, 512, 20, 12]> input_129_cast_fp16 = concat(axis = var_441, interleave = input_129_interleave_0, values = (input_123_cast_fp16, input_125_cast_fp16, input_127_cast_fp16, var_467_cast_fp16))[name = tensor<string, []>("input_129_cast_fp16")];
            tensor<int32, [2]> var_473 = const()[name = tensor<string, []>("op_473"), val = tensor<int32, [2]>([1, 1])];
            tensor<int32, [2]> var_475 = const()[name = tensor<string, []>("op_475"), val = tensor<int32, [2]>([1, 1])];
            tensor<string, []> input_131_pad_type_0 = const()[name = tensor<string, []>("input_131_pad_type_0"), val = tensor<string, []>("custom")];
            tensor<int32, [4]> input_131_pad_0 = const()[name = tensor<string, []>("input_131_pad_0"), val = tensor<int32, [4]>([0, 0, 0, 0])];
            tensor<fp16, [256, 512, 1, 1]> model_9_cv2_conv_weight_to_fp16_palettized = constexpr_lut_to_dense()[indices = tensor<uint8, [131072]>(BLOBFILE(path = tensor<string, []>("@model_path/weights/weight.bin"), offset = tensor<uint64, []>(1006656))), lut = tensor<fp16, [256]>(BLOBFILE(path = tensor<string, []>("@model_path/weights/weight.bin"), offset = tensor<uint64, []>(1137792))), name = tensor<string, []>("model_9_cv2_conv_weight_to_fp16_palettized"), shape = tensor<uint32, [4]>([256, 512, 1, 1])];
            tensor<fp16, [256]> model_9_cv2_conv_bias_to_fp16 = const()[name = tensor<string, []>("model_9_cv2_conv_bias_to_fp16"), val = tensor<fp16, [256]>(BLOBFILE(path = tensor<string, []>("@model_path/weights/weight.bin"), offset = tensor<uint64, []>(1138368)))];
            tensor<fp16, [1, 256, 20, 12]> input_131_cast_fp16 = conv(bias = model_9_cv2_conv_bias_to_fp16, dilations = var_475, groups = var_441, pad = input_131_pad_0, pad_type = input_131_pad_type_0, strides = var_473, weight = model_9_cv2_conv_weight_to_fp16_palettized, x = input_129_cast_fp16)[name = tensor<string, []>("input_131_cast_fp16")];
            tensor<fp16, [1, 256, 20, 12]> input_133_cast_fp16 = silu(x = input_131_cast_fp16)[name = tensor<string, []>("input_133_cast_fp16")];
            tensor<int32, []> var_484 = const()[name = tensor<string, []>("op_484"), val = tensor<int32, []>(-1)];
            tensor<int32, []> var_486 = const()[name = tensor<string, []>("op_486"), val = tensor<int32, []>(128)];
            tensor<int32, []> var_490 = const()[name = tensor<string, []>("op_490"), val = tensor<int32, []>(1)];
            tensor<int32, [2]> var_497 = const()[name = tensor<string, []>("op_497"), val = tensor<int32, [2]>([1, 1])];
            tensor<int32, [2]> var_499 = const()[name = tensor<string, []>("op_499"), val = tensor<int32, [2]>([1, 1])];
            tensor<string, []> input_135_pad_type_0 = const()[name = tensor<string, []>("input_135_pad_type_0"), val = tensor<string, []>("custom")];
            tensor<int32, [4]> input_135_pad_0 = const()[name = tensor<string, []>("input_135_pad_0"), val = tensor<int32, [4]>([0, 0, 0, 0])];
            tensor<fp16, [256, 256, 1, 1]> model_10_cv1_conv_weight_to_fp16_palettized = constexpr_lut_to_dense()[indices = tensor<uint8, [65536]>(BLOBFILE(path = tensor<string, []>("@model_path/weights/weight.bin"), offset = tensor<uint64, []>(1138944))), lut = tensor<fp16, [256]>(BLOBFILE(path = tensor<string, []>("@model_path/weights/weight.bin"), offset = tensor<uint64, []>(1204544))), name = tensor<string, []>("model_10_cv1_conv_weight_to_fp16_palettized"), shape = tensor<uint32, [4]>([256, 256, 1, 1])];
            tensor<fp16, [256]> model_10_cv1_conv_bias_to_fp16 = const()[name = tensor<string, []>("model_10_cv1_conv_bias_to_fp16"), val = tensor<fp16, [256]>(BLOBFILE(path = tensor<string, []>("@model_path/weights/weight.bin"), offset = tensor<uint64, []>(1205120)))];
            tensor<fp16, [1, 256, 20, 12]> input_135_cast_fp16 = conv(bias = model_10_cv1_conv_bias_to_fp16, dilations = var_499, groups = var_490, pad = input_135_pad_0, pad_type = input_135_pad_type_0, strides = var_497, weight = model_10_cv1_conv_weight_to_fp16_palettized, x = input_133_cast_fp16)[name = tensor<string, []>("input_135_cast_fp16")];
            tensor<fp16, [1, 256, 20, 12]> var_502_cast_fp16 = silu(x = input_135_cast_fp16)[name = tensor<string, []>("op_502_cast_fp16")];
            tensor<int32, [2]> var_503 = const()[name = tensor<string, []>("op_503"), val = tensor<int32, [2]>([128, 128])];
            tensor<int32, []> var_504_axis_0 = const()[name = tensor<string, []>("op_504_axis_0"), val = tensor<int32, []>(1)];
            tensor<fp16, [1, 128, 20, 12]> var_504_cast_fp16_0, tensor<fp16, [1, 128, 20, 12]> var_504_cast_fp16_1 = split(axis = var_504_axis_0, split_sizes = var_503, x = var_502_cast_fp16)[name = tensor<string, []>("op_504_cast_fp16")];
            tensor<int32, [2]> var_524 = const()[name = tensor<string, []>("op_524"), val = tensor<int32, [2]>([1, 1])];
            tensor<int32, [2]> var_526 = const()[name = tensor<string, []>("op_526"), val = tensor<int32, [2]>([1, 1])];
            tensor<string, []> qkv_1_pad_type_0 = const()[name = tensor<string, []>("qkv_1_pad_type_0"), val = tensor<string, []>("custom")];
            tensor<int32, [4]> qkv_1_pad_0 = const()[name = tensor<string, []>("qkv_1_pad_0"), val = tensor<int32, [4]>([0, 0, 0, 0])];
            tensor<fp16, [256, 128, 1, 1]> model_10_m_0_attn_qkv_conv_weight_to_fp16_palettized = constexpr_lut_to_dense()[indices = tensor<uint8, [32768]>(BLOBFILE(path = tensor<string, []>("@model_path/weights/weight.bin"), offset = tensor<uint64, []>(1205696))), lut = tensor<fp16, [256]>(BLOBFILE(path = tensor<string, []>("@model_path/weights/weight.bin"), offset = tensor<uint64, []>(1238528))), name = tensor<string, []>("model_10_m_0_attn_qkv_conv_weight_to_fp16_palettized"), shape = tensor<uint32, [4]>([256, 128, 1, 1])];
            tensor<fp16, [256]> model_10_m_0_attn_qkv_conv_bias_to_fp16 = const()[name = tensor<string, []>("model_10_m_0_attn_qkv_conv_bias_to_fp16"), val = tensor<fp16, [256]>(BLOBFILE(path = tensor<string, []>("@model_path/weights/weight.bin"), offset = tensor<uint64, []>(1239104)))];
            tensor<fp16, [1, 256, 20, 12]> qkv_1_cast_fp16 = conv(bias = model_10_m_0_attn_qkv_conv_bias_to_fp16, dilations = var_526, groups = var_490, pad = qkv_1_pad_0, pad_type = qkv_1_pad_type_0, strides = var_524, weight = model_10_m_0_attn_qkv_conv_weight_to_fp16_palettized, x = var_504_cast_fp16_1)[name = tensor<string, []>("qkv_1_cast_fp16")];
            tensor<int32, [4]> var_529 = const()[name = tensor<string, []>("op_529"), val = tensor<int32, [4]>([1, 2, 128, 240])];
            tensor<fp16, [1, 2, 128, 240]> var_530_cast_fp16 = reshape(shape = var_529, x = qkv_1_cast_fp16)[name = tensor<string, []>("op_530_cast_fp16")];
            tensor<int32, [3]> var_531 = const()[name = tensor<string, []>("op_531"), val = tensor<int32, [3]>([32, 32, 64])];
            tensor<int32, []> var_532_axis_0 = const()[name = tensor<string, []>("op_532_axis_0"), val = tensor<int32, []>(2)];
            tensor<fp16, [1, 2, 32, 240]> var_532_cast_fp16_0, tensor<fp16, [1, 2, 32, 240]> var_532_cast_fp16_1, tensor<fp16, [1, 2, 64, 240]> var_532_cast_fp16_2 = split(axis = var_532_axis_0, split_sizes = var_531, x = var_530_cast_fp16)[name = tensor<string, []>("op_532_cast_fp16")];
            tensor<bool, []> var_537_transpose_x_1 = const()[name = tensor<string, []>("op_537_transpose_x_1"), val = tensor<bool, []>(true)];
            tensor<bool, []> var_537_transpose_y_1 = const()[name = tensor<string, []>("op_537_transpose_y_1"), val = tensor<bool, []>(false)];
            tensor<fp16, [1, 2, 240, 240]> var_537_cast_fp16 = matmul(transpose_x = var_537_transpose_x_1, transpose_y = var_537_transpose_y_1, x = var_532_cast_fp16_0, y = var_532_cast_fp16_1)[name = tensor<string, []>("op_537_cast_fp16")];
            tensor<fp16, []> var_538_to_fp16 = const()[name = tensor<string, []>("op_538_to_fp16"), val = tensor<fp16, []>(0x1.6ap-3)];
            tensor<fp16, [1, 2, 240, 240]> attn_1_cast_fp16 = mul(x = var_537_cast_fp16, y = var_538_to_fp16)[name = tensor<string, []>("attn_1_cast_fp16")];
            tensor<fp16, [1, 2, 240, 240]> attn_3_cast_fp16 = softmax(axis = var_484, x = attn_1_cast_fp16)[name = tensor<string, []>("attn_3_cast_fp16")];
            tensor<bool, []> var_542_transpose_x_1 = const()[name = tensor<string, []>("op_542_transpose_x_1"), val = tensor<bool, []>(false)];
            tensor<bool, []> var_542_transpose_y_1 = const()[name = tensor<string, []>("op_542_transpose_y_1"), val = tensor<bool, []>(true)];
            tensor<fp16, [1, 2, 64, 240]> var_542_cast_fp16 = matmul(transpose_x = var_542_transpose_x_1, transpose_y = var_542_transpose_y_1, x = var_532_cast_fp16_2, y = attn_3_cast_fp16)[name = tensor<string, []>("op_542_cast_fp16")];
            tensor<int32, [4]> var_543 = const()[name = tensor<string, []>("op_543"), val = tensor<int32, [4]>([1, 128, 20, 12])];
            tensor<fp16, [1, 128, 20, 12]> var_544_cast_fp16 = reshape(shape = var_543, x = var_542_cast_fp16)[name = tensor<string, []>("op_544_cast_fp16")];
            tensor<int32, [4]> var_545 = const()[name = tensor<string, []>("op_545"), val = tensor<int32, [4]>([1, 128, 20, 12])];
            tensor<fp16, [1, 128, 20, 12]> input_137_cast_fp16 = reshape(shape = var_545, x = var_532_cast_fp16_2)[name = tensor<string, []>("input_137_cast_fp16")];
            tensor<int32, [2]> var_550 = const()[name = tensor<string, []>("op_550"), val = tensor<int32, [2]>([1, 1])];
            tensor<int32, [2]> var_552 = const()[name = tensor<string, []>("op_552"), val = tensor<int32, [2]>([1, 1])];
            tensor<string, []> var_554_pad_type_0 = const()[name = tensor<string, []>("op_554_pad_type_0"), val = tensor<string, []>("custom")];
            tensor<int32, [4]> var_554_pad_0 = const()[name = tensor<string, []>("op_554_pad_0"), val = tensor<int32, [4]>([1, 1, 1, 1])];
            tensor<fp16, [128, 1, 3, 3]> model_10_m_0_attn_pe_conv_weight_to_fp16_palettized = constexpr_lut_to_dense()[indices = tensor<uint8, [1152]>(BLOBFILE(path = tensor<string, []>("@model_path/weights/weight.bin"), offset = tensor<uint64, []>(1239680))), lut = tensor<fp16, [256]>(BLOBFILE(path = tensor<string, []>("@model_path/weights/weight.bin"), offset = tensor<uint64, []>(1240896))), name = tensor<string, []>("model_10_m_0_attn_pe_conv_weight_to_fp16_palettized"), shape = tensor<uint32, [4]>([128, 1, 3, 3])];
            tensor<fp16, [128]> model_10_m_0_attn_pe_conv_bias_to_fp16 = const()[name = tensor<string, []>("model_10_m_0_attn_pe_conv_bias_to_fp16"), val = tensor<fp16, [128]>(BLOBFILE(path = tensor<string, []>("@model_path/weights/weight.bin"), offset = tensor<uint64, []>(1241472)))];
            tensor<fp16, [1, 128, 20, 12]> var_554_cast_fp16 = conv(bias = model_10_m_0_attn_pe_conv_bias_to_fp16, dilations = var_552, groups = var_486, pad = var_554_pad_0, pad_type = var_554_pad_type_0, strides = var_550, weight = model_10_m_0_attn_pe_conv_weight_to_fp16_palettized, x = input_137_cast_fp16)[name = tensor<string, []>("op_554_cast_fp16")];
            tensor<fp16, [1, 128, 20, 12]> input_139_cast_fp16 = add(x = var_544_cast_fp16, y = var_554_cast_fp16)[name = tensor<string, []>("input_139_cast_fp16")];
            tensor<int32, [2]> var_559 = const()[name = tensor<string, []>("op_559"), val = tensor<int32, [2]>([1, 1])];
            tensor<int32, [2]> var_561 = const()[name = tensor<string, []>("op_561"), val = tensor<int32, [2]>([1, 1])];
            tensor<string, []> var_563_pad_type_0 = const()[name = tensor<string, []>("op_563_pad_type_0"), val = tensor<string, []>("custom")];
            tensor<int32, [4]> var_563_pad_0 = const()[name = tensor<string, []>("op_563_pad_0"), val = tensor<int32, [4]>([0, 0, 0, 0])];
            tensor<fp16, [128, 128, 1, 1]> model_10_m_0_attn_proj_conv_weight_to_fp16_palettized = constexpr_lut_to_dense()[indices = tensor<uint8, [16384]>(BLOBFILE(path = tensor<string, []>("@model_path/weights/weight.bin"), offset = tensor<uint64, []>(1241792))), lut = tensor<fp16, [256]>(BLOBFILE(path = tensor<string, []>("@model_path/weights/weight.bin"), offset = tensor<uint64, []>(1258240))), name = tensor<string, []>("model_10_m_0_attn_proj_conv_weight_to_fp16_palettized"), shape = tensor<uint32, [4]>([128, 128, 1, 1])];
            tensor<fp16, [128]> model_10_m_0_attn_proj_conv_bias_to_fp16 = const()[name = tensor<string, []>("model_10_m_0_attn_proj_conv_bias_to_fp16"), val = tensor<fp16, [128]>(BLOBFILE(path = tensor<string, []>("@model_path/weights/weight.bin"), offset = tensor<uint64, []>(1258816)))];
            tensor<fp16, [1, 128, 20, 12]> var_563_cast_fp16 = conv(bias = model_10_m_0_attn_proj_conv_bias_to_fp16, dilations = var_561, groups = var_490, pad = var_563_pad_0, pad_type = var_563_pad_type_0, strides = var_559, weight = model_10_m_0_attn_proj_conv_weight_to_fp16_palettized, x = input_139_cast_fp16)[name = tensor<string, []>("op_563_cast_fp16")];
            tensor<fp16, [1, 128, 20, 12]> input_141_cast_fp16 = add(x = var_504_cast_fp16_1, y = var_563_cast_fp16)[name = tensor<string, []>("input_141_cast_fp16")];
            tensor<int32, [2]> var_570 = const()[name = tensor<string, []>("op_570"), val = tensor<int32, [2]>([1, 1])];
            tensor<int32, [2]> var_572 = const()[name = tensor<string, []>("op_572"), val = tensor<int32, [2]>([1, 1])];
            tensor<string, []> input_143_pad_type_0 = const()[name = tensor<string, []>("input_143_pad_type_0"), val = tensor<string, []>("custom")];
            tensor<int32, [4]> input_143_pad_0 = const()[name = tensor<string, []>("input_143_pad_0"), val = tensor<int32, [4]>([0, 0, 0, 0])];
            tensor<fp16, [256, 128, 1, 1]> model_10_m_0_ffn_0_conv_weight_to_fp16_palettized = constexpr_lut_to_dense()[indices = tensor<uint8, [32768]>(BLOBFILE(path = tensor<string, []>("@model_path/weights/weight.bin"), offset = tensor<uint64, []>(1259136))), lut = tensor<fp16, [256]>(BLOBFILE(path = tensor<string, []>("@model_path/weights/weight.bin"), offset = tensor<uint64, []>(1291968))), name = tensor<string, []>("model_10_m_0_ffn_0_conv_weight_to_fp16_palettized"), shape = tensor<uint32, [4]>([256, 128, 1, 1])];
            tensor<fp16, [256]> model_10_m_0_ffn_0_conv_bias_to_fp16 = const()[name = tensor<string, []>("model_10_m_0_ffn_0_conv_bias_to_fp16"), val = tensor<fp16, [256]>(BLOBFILE(path = tensor<string, []>("@model_path/weights/weight.bin"), offset = tensor<uint64, []>(1292544)))];
            tensor<fp16, [1, 256, 20, 12]> input_143_cast_fp16 = conv(bias = model_10_m_0_ffn_0_conv_bias_to_fp16, dilations = var_572, groups = var_490, pad = input_143_pad_0, pad_type = input_143_pad_type_0, strides = var_570, weight = model_10_m_0_ffn_0_conv_weight_to_fp16_palettized, x = input_141_cast_fp16)[name = tensor<string, []>("input_143_cast_fp16")];
            tensor<fp16, [1, 256, 20, 12]> input_145_cast_fp16 = silu(x = input_143_cast_fp16)[name = tensor<string, []>("input_145_cast_fp16")];
            tensor<int32, [2]> var_579 = const()[name = tensor<string, []>("op_579"), val = tensor<int32, [2]>([1, 1])];
            tensor<int32, [2]> var_581 = const()[name = tensor<string, []>("op_581"), val = tensor<int32, [2]>([1, 1])];
            tensor<string, []> var_583_pad_type_0 = const()[name = tensor<string, []>("op_583_pad_type_0"), val = tensor<string, []>("custom")];
            tensor<int32, [4]> var_583_pad_0 = const()[name = tensor<string, []>("op_583_pad_0"), val = tensor<int32, [4]>([0, 0, 0, 0])];
            tensor<fp16, [128, 256, 1, 1]> model_10_m_0_ffn_1_conv_weight_to_fp16_palettized = constexpr_lut_to_dense()[indices = tensor<uint8, [32768]>(BLOBFILE(path = tensor<string, []>("@model_path/weights/weight.bin"), offset = tensor<uint64, []>(1293120))), lut = tensor<fp16, [256]>(BLOBFILE(path = tensor<string, []>("@model_path/weights/weight.bin"), offset = tensor<uint64, []>(1325952))), name = tensor<string, []>("model_10_m_0_ffn_1_conv_weight_to_fp16_palettized"), shape = tensor<uint32, [4]>([128, 256, 1, 1])];
            tensor<fp16, [128]> model_10_m_0_ffn_1_conv_bias_to_fp16 = const()[name = tensor<string, []>("model_10_m_0_ffn_1_conv_bias_to_fp16"), val = tensor<fp16, [128]>(BLOBFILE(path = tensor<string, []>("@model_path/weights/weight.bin"), offset = tensor<uint64, []>(1326528)))];
            tensor<fp16, [1, 128, 20, 12]> var_583_cast_fp16 = conv(bias = model_10_m_0_ffn_1_conv_bias_to_fp16, dilations = var_581, groups = var_490, pad = var_583_pad_0, pad_type = var_583_pad_type_0, strides = var_579, weight = model_10_m_0_ffn_1_conv_weight_to_fp16_palettized, x = input_145_cast_fp16)[name = tensor<string, []>("op_583_cast_fp16")];
            tensor<fp16, [1, 128, 20, 12]> b_1_cast_fp16 = add(x = input_141_cast_fp16, y = var_583_cast_fp16)[name = tensor<string, []>("b_1_cast_fp16")];
            tensor<bool, []> input_147_interleave_0 = const()[name = tensor<string, []>("input_147_interleave_0"), val = tensor<bool, []>(false)];
            tensor<fp16, [1, 256, 20, 12]> input_147_cast_fp16 = concat(axis = var_490, interleave = input_147_interleave_0, values = (var_504_cast_fp16_0, b_1_cast_fp16))[name = tensor<string, []>("input_147_cast_fp16")];
            tensor<int32, [2]> var_590 = const()[name = tensor<string, []>("op_590"), val = tensor<int32, [2]>([1, 1])];
            tensor<int32, [2]> var_592 = const()[name = tensor<string, []>("op_592"), val = tensor<int32, [2]>([1, 1])];
            tensor<string, []> input_149_pad_type_0 = const()[name = tensor<string, []>("input_149_pad_type_0"), val = tensor<string, []>("custom")];
            tensor<int32, [4]> input_149_pad_0 = const()[name = tensor<string, []>("input_149_pad_0"), val = tensor<int32, [4]>([0, 0, 0, 0])];
            tensor<fp16, [256, 256, 1, 1]> model_10_cv2_conv_weight_to_fp16_palettized = constexpr_lut_to_dense()[indices = tensor<uint8, [65536]>(BLOBFILE(path = tensor<string, []>("@model_path/weights/weight.bin"), offset = tensor<uint64, []>(1326848))), lut = tensor<fp16, [256]>(BLOBFILE(path = tensor<string, []>("@model_path/weights/weight.bin"), offset = tensor<uint64, []>(1392448))), name = tensor<string, []>("model_10_cv2_conv_weight_to_fp16_palettized"), shape = tensor<uint32, [4]>([256, 256, 1, 1])];
            tensor<fp16, [256]> model_10_cv2_conv_bias_to_fp16 = const()[name = tensor<string, []>("model_10_cv2_conv_bias_to_fp16"), val = tensor<fp16, [256]>(BLOBFILE(path = tensor<string, []>("@model_path/weights/weight.bin"), offset = tensor<uint64, []>(1393024)))];
            tensor<fp16, [1, 256, 20, 12]> input_149_cast_fp16 = conv(bias = model_10_cv2_conv_bias_to_fp16, dilations = var_592, groups = var_490, pad = input_149_pad_0, pad_type = input_149_pad_type_0, strides = var_590, weight = model_10_cv2_conv_weight_to_fp16_palettized, x = input_147_cast_fp16)[name = tensor<string, []>("input_149_cast_fp16")];
            tensor<fp16, [1, 256, 20, 12]> input_151_cast_fp16 = silu(x = input_149_cast_fp16)[name = tensor<string, []>("input_151_cast_fp16")];
            tensor<fp32, []> var_599_scale_factor_height_0 = const()[name = tensor<string, []>("op_599_scale_factor_height_0"), val = tensor<fp32, []>(0x1p+1)];
            tensor<fp32, []> var_599_scale_factor_width_0 = const()[name = tensor<string, []>("op_599_scale_factor_width_0"), val = tensor<fp32, []>(0x1p+1)];
            tensor<fp16, [1, 256, 40, 24]> var_599_cast_fp16 = upsample_nearest_neighbor(scale_factor_height = var_599_scale_factor_height_0, scale_factor_width = var_599_scale_factor_width_0, x = input_151_cast_fp16)[name = tensor<string, []>("op_599_cast_fp16")];
            tensor<int32, []> var_600 = const()[name = tensor<string, []>("op_600"), val = tensor<int32, []>(1)];
            tensor<bool, []> input_153_interleave_0 = const()[name = tensor<string, []>("input_153_interleave_0"), val = tensor<bool, []>(false)];
            tensor<fp16, [1, 384, 40, 24]> input_153_cast_fp16 = concat(axis = var_600, interleave = input_153_interleave_0, values = (var_599_cast_fp16, input_81_cast_fp16))[name = tensor<string, []>("input_153_cast_fp16")];
            tensor<int32, []> var_607 = const()[name = tensor<string, []>("op_607"), val = tensor<int32, []>(1)];
            tensor<int32, [2]> var_615 = const()[name = tensor<string, []>("op_615"), val = tensor<int32, [2]>([1, 1])];
            tensor<int32, [2]> var_617 = const()[name = tensor<string, []>("op_617"), val = tensor<int32, [2]>([1, 1])];
            tensor<string, []> input_155_pad_type_0 = const()[name = tensor<string, []>("input_155_pad_type_0"), val = tensor<string, []>("custom")];
            tensor<int32, [4]> input_155_pad_0 = const()[name = tensor<string, []>("input_155_pad_0"), val = tensor<int32, [4]>([0, 0, 0, 0])];
            tensor<fp16, [128, 384, 1, 1]> model_13_cv1_conv_weight_to_fp16_palettized = constexpr_lut_to_dense()[indices = tensor<uint8, [49152]>(BLOBFILE(path = tensor<string, []>("@model_path/weights/weight.bin"), offset = tensor<uint64, []>(1393600))), lut = tensor<fp16, [256]>(BLOBFILE(path = tensor<string, []>("@model_path/weights/weight.bin"), offset = tensor<uint64, []>(1442816))), name = tensor<string, []>("model_13_cv1_conv_weight_to_fp16_palettized"), shape = tensor<uint32, [4]>([128, 384, 1, 1])];
            tensor<fp16, [128]> model_13_cv1_conv_bias_to_fp16 = const()[name = tensor<string, []>("model_13_cv1_conv_bias_to_fp16"), val = tensor<fp16, [128]>(BLOBFILE(path = tensor<string, []>("@model_path/weights/weight.bin"), offset = tensor<uint64, []>(1443392)))];
            tensor<fp16, [1, 128, 40, 24]> input_155_cast_fp16 = conv(bias = model_13_cv1_conv_bias_to_fp16, dilations = var_617, groups = var_607, pad = input_155_pad_0, pad_type = input_155_pad_type_0, strides = var_615, weight = model_13_cv1_conv_weight_to_fp16_palettized, x = input_153_cast_fp16)[name = tensor<string, []>("input_155_cast_fp16")];
            tensor<fp16, [1, 128, 40, 24]> var_620_cast_fp16 = silu(x = input_155_cast_fp16)[name = tensor<string, []>("op_620_cast_fp16")];
            tensor<int32, [2]> var_621 = const()[name = tensor<string, []>("op_621"), val = tensor<int32, [2]>([64, 64])];
            tensor<int32, []> var_622_axis_0 = const()[name = tensor<string, []>("op_622_axis_0"), val = tensor<int32, []>(1)];
            tensor<fp16, [1, 64, 40, 24]> var_622_cast_fp16_0, tensor<fp16, [1, 64, 40, 24]> var_622_cast_fp16_1 = split(axis = var_622_axis_0, split_sizes = var_621, x = var_620_cast_fp16)[name = tensor<string, []>("op_622_cast_fp16")];
            tensor<int32, [2]> var_630 = const()[name = tensor<string, []>("op_630"), val = tensor<int32, [2]>([1, 1])];
            tensor<int32, [2]> var_632 = const()[name = tensor<string, []>("op_632"), val = tensor<int32, [2]>([1, 1])];
            tensor<string, []> input_159_pad_type_0 = const()[name = tensor<string, []>("input_159_pad_type_0"), val = tensor<string, []>("custom")];
            tensor<int32, [4]> input_159_pad_0 = const()[name = tensor<string, []>("input_159_pad_0"), val = tensor<int32, [4]>([1, 1, 1, 1])];
            tensor<fp16, [32, 64, 3, 3]> model_13_m_0_cv1_conv_weight_to_fp16_palettized = constexpr_lut_to_dense()[indices = tensor<uint8, [18432]>(BLOBFILE(path = tensor<string, []>("@model_path/weights/weight.bin"), offset = tensor<uint64, []>(1443712))), lut = tensor<fp16, [256]>(BLOBFILE(path = tensor<string, []>("@model_path/weights/weight.bin"), offset = tensor<uint64, []>(1462208))), name = tensor<string, []>("model_13_m_0_cv1_conv_weight_to_fp16_palettized"), shape = tensor<uint32, [4]>([32, 64, 3, 3])];
            tensor<fp16, [32]> model_13_m_0_cv1_conv_bias_to_fp16 = const()[name = tensor<string, []>("model_13_m_0_cv1_conv_bias_to_fp16"), val = tensor<fp16, [32]>(BLOBFILE(path = tensor<string, []>("@model_path/weights/weight.bin"), offset = tensor<uint64, []>(1462784)))];
            tensor<fp16, [1, 32, 40, 24]> input_159_cast_fp16 = conv(bias = model_13_m_0_cv1_conv_bias_to_fp16, dilations = var_632, groups = var_607, pad = input_159_pad_0, pad_type = input_159_pad_type_0, strides = var_630, weight = model_13_m_0_cv1_conv_weight_to_fp16_palettized, x = var_622_cast_fp16_1)[name = tensor<string, []>("input_159_cast_fp16")];
            tensor<fp16, [1, 32, 40, 24]> input_161_cast_fp16 = silu(x = input_159_cast_fp16)[name = tensor<string, []>("input_161_cast_fp16")];
            tensor<int32, [2]> var_639 = const()[name = tensor<string, []>("op_639"), val = tensor<int32, [2]>([1, 1])];
            tensor<int32, [2]> var_641 = const()[name = tensor<string, []>("op_641"), val = tensor<int32, [2]>([1, 1])];
            tensor<string, []> input_163_pad_type_0 = const()[name = tensor<string, []>("input_163_pad_type_0"), val = tensor<string, []>("custom")];
            tensor<int32, [4]> input_163_pad_0 = const()[name = tensor<string, []>("input_163_pad_0"), val = tensor<int32, [4]>([1, 1, 1, 1])];
            tensor<fp16, [64, 32, 3, 3]> model_13_m_0_cv2_conv_weight_to_fp16_palettized = constexpr_lut_to_dense()[indices = tensor<uint8, [18432]>(BLOBFILE(path = tensor<string, []>("@model_path/weights/weight.bin"), offset = tensor<uint64, []>(1462912))), lut = tensor<fp16, [256]>(BLOBFILE(path = tensor<string, []>("@model_path/weights/weight.bin"), offset = tensor<uint64, []>(1481408))), name = tensor<string, []>("model_13_m_0_cv2_conv_weight_to_fp16_palettized"), shape = tensor<uint32, [4]>([64, 32, 3, 3])];
            tensor<fp16, [64]> model_13_m_0_cv2_conv_bias_to_fp16 = const()[name = tensor<string, []>("model_13_m_0_cv2_conv_bias_to_fp16"), val = tensor<fp16, [64]>(BLOBFILE(path = tensor<string, []>("@model_path/weights/weight.bin"), offset = tensor<uint64, []>(1481984)))];
            tensor<fp16, [1, 64, 40, 24]> input_163_cast_fp16 = conv(bias = model_13_m_0_cv2_conv_bias_to_fp16, dilations = var_641, groups = var_607, pad = input_163_pad_0, pad_type = input_163_pad_type_0, strides = var_639, weight = model_13_m_0_cv2_conv_weight_to_fp16_palettized, x = input_161_cast_fp16)[name = tensor<string, []>("input_163_cast_fp16")];
            tensor<fp16, [1, 64, 40, 24]> var_644_cast_fp16 = silu(x = input_163_cast_fp16)[name = tensor<string, []>("op_644_cast_fp16")];
            tensor<fp16, [1, 64, 40, 24]> var_645_cast_fp16 = add(x = var_622_cast_fp16_1, y = var_644_cast_fp16)[name = tensor<string, []>("op_645_cast_fp16")];
            tensor<bool, []> input_165_interleave_0 = const()[name = tensor<string, []>("input_165_interleave_0"), val = tensor<bool, []>(false)];
            tensor<fp16, [1, 192, 40, 24]> input_165_cast_fp16 = concat(axis = var_607, interleave = input_165_interleave_0, values = (var_622_cast_fp16_0, var_622_cast_fp16_1, var_645_cast_fp16))[name = tensor<string, []>("input_165_cast_fp16")];
            tensor<int32, [2]> var_651 = const()[name = tensor<string, []>("op_651"), val = tensor<int32, [2]>([1, 1])];
            tensor<int32, [2]> var_653 = const()[name = tensor<string, []>("op_653"), val = tensor<int32, [2]>([1, 1])];
            tensor<string, []> input_167_pad_type_0 = const()[name = tensor<string, []>("input_167_pad_type_0"), val = tensor<string, []>("custom")];
            tensor<int32, [4]> input_167_pad_0 = const()[name = tensor<string, []>("input_167_pad_0"), val = tensor<int32, [4]>([0, 0, 0, 0])];
            tensor<fp16, [128, 192, 1, 1]> model_13_cv2_conv_weight_to_fp16_palettized = constexpr_lut_to_dense()[indices = tensor<uint8, [24576]>(BLOBFILE(path = tensor<string, []>("@model_path/weights/weight.bin"), offset = tensor<uint64, []>(1482176))), lut = tensor<fp16, [256]>(BLOBFILE(path = tensor<string, []>("@model_path/weights/weight.bin"), offset = tensor<uint64, []>(1506816))), name = tensor<string, []>("model_13_cv2_conv_weight_to_fp16_palettized"), shape = tensor<uint32, [4]>([128, 192, 1, 1])];
            tensor<fp16, [128]> model_13_cv2_conv_bias_to_fp16 = const()[name = tensor<string, []>("model_13_cv2_conv_bias_to_fp16"), val = tensor<fp16, [128]>(BLOBFILE(path = tensor<string, []>("@model_path/weights/weight.bin"), offset = tensor<uint64, []>(1507392)))];
            tensor<fp16, [1, 128, 40, 24]> input_167_cast_fp16 = conv(bias = model_13_cv2_conv_bias_to_fp16, dilations = var_653, groups = var_607, pad = input_167_pad_0, pad_type = input_167_pad_type_0, strides = var_651, weight = model_13_cv2_conv_weight_to_fp16_palettized, x = input_165_cast_fp16)[name = tensor<string, []>("input_167_cast_fp16")];
            tensor<fp16, [1, 128, 40, 24]> input_169_cast_fp16 = silu(x = input_167_cast_fp16)[name = tensor<string, []>("input_169_cast_fp16")];
            tensor<fp32, []> var_660_scale_factor_height_0 = const()[name = tensor<string, []>("op_660_scale_factor_height_0"), val = tensor<fp32, []>(0x1p+1)];
            tensor<fp32, []> var_660_scale_factor_width_0 = const()[name = tensor<string, []>("op_660_scale_factor_width_0"), val = tensor<fp32, []>(0x1p+1)];
            tensor<fp16, [1, 128, 80, 48]> var_660_cast_fp16 = upsample_nearest_neighbor(scale_factor_height = var_660_scale_factor_height_0, scale_factor_width = var_660_scale_factor_width_0, x = input_169_cast_fp16)[name = tensor<string, []>("op_660_cast_fp16")];
            tensor<int32, []> var_661 = const()[name = tensor<string, []>("op_661"), val = tensor<int32, []>(1)];
            tensor<bool, []> input_171_interleave_0 = const()[name = tensor<string, []>("input_171_interleave_0"), val = tensor<bool, []>(false)];
            tensor<fp16, [1, 256, 80, 48]> input_171_cast_fp16 = concat(axis = var_661, interleave = input_171_interleave_0, values = (var_660_cast_fp16, input_43_cast_fp16))[name = tensor<string, []>("input_171_cast_fp16")];
            tensor<int32, []> var_668 = const()[name = tensor<string, []>("op_668"), val = tensor<int32, []>(1)];
            tensor<int32, [2]> var_676 = const()[name = tensor<string, []>("op_676"), val = tensor<int32, [2]>([1, 1])];
            tensor<int32, [2]> var_678 = const()[name = tensor<string, []>("op_678"), val = tensor<int32, [2]>([1, 1])];
            tensor<string, []> input_173_pad_type_0 = const()[name = tensor<string, []>("input_173_pad_type_0"), val = tensor<string, []>("custom")];
            tensor<int32, [4]> input_173_pad_0 = const()[name = tensor<string, []>("input_173_pad_0"), val = tensor<int32, [4]>([0, 0, 0, 0])];
            tensor<fp16, [64, 256, 1, 1]> model_16_cv1_conv_weight_to_fp16_palettized = constexpr_lut_to_dense()[indices = tensor<uint8, [16384]>(BLOBFILE(path = tensor<string, []>("@model_path/weights/weight.bin"), offset = tensor<uint64, []>(1507712))), lut = tensor<fp16, [256]>(BLOBFILE(path = tensor<string, []>("@model_path/weights/weight.bin"), offset = tensor<uint64, []>(1524160))), name = tensor<string, []>("model_16_cv1_conv_weight_to_fp16_palettized"), shape = tensor<uint32, [4]>([64, 256, 1, 1])];
            tensor<fp16, [64]> model_16_cv1_conv_bias_to_fp16 = const()[name = tensor<string, []>("model_16_cv1_conv_bias_to_fp16"), val = tensor<fp16, [64]>(BLOBFILE(path = tensor<string, []>("@model_path/weights/weight.bin"), offset = tensor<uint64, []>(1524736)))];
            tensor<fp16, [1, 64, 80, 48]> input_173_cast_fp16 = conv(bias = model_16_cv1_conv_bias_to_fp16, dilations = var_678, groups = var_668, pad = input_173_pad_0, pad_type = input_173_pad_type_0, strides = var_676, weight = model_16_cv1_conv_weight_to_fp16_palettized, x = input_171_cast_fp16)[name = tensor<string, []>("input_173_cast_fp16")];
            tensor<fp16, [1, 64, 80, 48]> var_681_cast_fp16 = silu(x = input_173_cast_fp16)[name = tensor<string, []>("op_681_cast_fp16")];
            tensor<int32, [2]> var_682 = const()[name = tensor<string, []>("op_682"), val = tensor<int32, [2]>([32, 32])];
            tensor<int32, []> var_683_axis_0 = const()[name = tensor<string, []>("op_683_axis_0"), val = tensor<int32, []>(1)];
            tensor<fp16, [1, 32, 80, 48]> var_683_cast_fp16_0, tensor<fp16, [1, 32, 80, 48]> var_683_cast_fp16_1 = split(axis = var_683_axis_0, split_sizes = var_682, x = var_681_cast_fp16)[name = tensor<string, []>("op_683_cast_fp16")];
            tensor<int32, [2]> var_691 = const()[name = tensor<string, []>("op_691"), val = tensor<int32, [2]>([1, 1])];
            tensor<int32, [2]> var_693 = const()[name = tensor<string, []>("op_693"), val = tensor<int32, [2]>([1, 1])];
            tensor<string, []> input_177_pad_type_0 = const()[name = tensor<string, []>("input_177_pad_type_0"), val = tensor<string, []>("custom")];
            tensor<int32, [4]> input_177_pad_0 = const()[name = tensor<string, []>("input_177_pad_0"), val = tensor<int32, [4]>([1, 1, 1, 1])];
            tensor<fp16, [16, 32, 3, 3]> model_16_m_0_cv1_conv_weight_to_fp16_palettized = constexpr_lut_to_dense()[indices = tensor<uint8, [4608]>(BLOBFILE(path = tensor<string, []>("@model_path/weights/weight.bin"), offset = tensor<uint64, []>(1524928))), lut = tensor<fp16, [256]>(BLOBFILE(path = tensor<string, []>("@model_path/weights/weight.bin"), offset = tensor<uint64, []>(1529600))), name = tensor<string, []>("model_16_m_0_cv1_conv_weight_to_fp16_palettized"), shape = tensor<uint32, [4]>([16, 32, 3, 3])];
            tensor<fp16, [16]> model_16_m_0_cv1_conv_bias_to_fp16 = const()[name = tensor<string, []>("model_16_m_0_cv1_conv_bias_to_fp16"), val = tensor<fp16, [16]>(BLOBFILE(path = tensor<string, []>("@model_path/weights/weight.bin"), offset = tensor<uint64, []>(1530176)))];
            tensor<fp16, [1, 16, 80, 48]> input_177_cast_fp16 = conv(bias = model_16_m_0_cv1_conv_bias_to_fp16, dilations = var_693, groups = var_668, pad = input_177_pad_0, pad_type = input_177_pad_type_0, strides = var_691, weight = model_16_m_0_cv1_conv_weight_to_fp16_palettized, x = var_683_cast_fp16_1)[name = tensor<string, []>("input_177_cast_fp16")];
            tensor<fp16, [1, 16, 80, 48]> input_179_cast_fp16 = silu(x = input_177_cast_fp16)[name = tensor<string, []>("input_179_cast_fp16")];
            tensor<int32, [2]> var_700 = const()[name = tensor<string, []>("op_700"), val = tensor<int32, [2]>([1, 1])];
            tensor<int32, [2]> var_702 = const()[name = tensor<string, []>("op_702"), val = tensor<int32, [2]>([1, 1])];
            tensor<string, []> input_181_pad_type_0 = const()[name = tensor<string, []>("input_181_pad_type_0"), val = tensor<string, []>("custom")];
            tensor<int32, [4]> input_181_pad_0 = const()[name = tensor<string, []>("input_181_pad_0"), val = tensor<int32, [4]>([1, 1, 1, 1])];
            tensor<fp16, [32, 16, 3, 3]> model_16_m_0_cv2_conv_weight_to_fp16_palettized = constexpr_lut_to_dense()[indices = tensor<uint8, [4608]>(BLOBFILE(path = tensor<string, []>("@model_path/weights/weight.bin"), offset = tensor<uint64, []>(1530304))), lut = tensor<fp16, [256]>(BLOBFILE(path = tensor<string, []>("@model_path/weights/weight.bin"), offset = tensor<uint64, []>(1534976))), name = tensor<string, []>("model_16_m_0_cv2_conv_weight_to_fp16_palettized"), shape = tensor<uint32, [4]>([32, 16, 3, 3])];
            tensor<fp16, [32]> model_16_m_0_cv2_conv_bias_to_fp16 = const()[name = tensor<string, []>("model_16_m_0_cv2_conv_bias_to_fp16"), val = tensor<fp16, [32]>(BLOBFILE(path = tensor<string, []>("@model_path/weights/weight.bin"), offset = tensor<uint64, []>(1535552)))];
            tensor<fp16, [1, 32, 80, 48]> input_181_cast_fp16 = conv(bias = model_16_m_0_cv2_conv_bias_to_fp16, dilations = var_702, groups = var_668, pad = input_181_pad_0, pad_type = input_181_pad_type_0, strides = var_700, weight = model_16_m_0_cv2_conv_weight_to_fp16_palettized, x = input_179_cast_fp16)[name = tensor<string, []>("input_181_cast_fp16")];
            tensor<fp16, [1, 32, 80, 48]> var_705_cast_fp16 = silu(x = input_181_cast_fp16)[name = tensor<string, []>("op_705_cast_fp16")];
            tensor<fp16, [1, 32, 80, 48]> var_706_cast_fp16 = add(x = var_683_cast_fp16_1, y = var_705_cast_fp16)[name = tensor<string, []>("op_706_cast_fp16")];
            tensor<bool, []> input_183_interleave_0 = const()[name = tensor<string, []>("input_183_interleave_0"), val = tensor<bool, []>(false)];
            tensor<fp16, [1, 96, 80, 48]> input_183_cast_fp16 = concat(axis = var_668, interleave = input_183_interleave_0, values = (var_683_cast_fp16_0, var_683_cast_fp16_1, var_706_cast_fp16))[name = tensor<string, []>("input_183_cast_fp16")];
            tensor<int32, [2]> var_712 = const()[name = tensor<string, []>("op_712"), val = tensor<int32, [2]>([1, 1])];
            tensor<int32, [2]> var_714 = const()[name = tensor<string, []>("op_714"), val = tensor<int32, [2]>([1, 1])];
            tensor<string, []> input_185_pad_type_0 = const()[name = tensor<string, []>("input_185_pad_type_0"), val = tensor<string, []>("custom")];
            tensor<int32, [4]> input_185_pad_0 = const()[name = tensor<string, []>("input_185_pad_0"), val = tensor<int32, [4]>([0, 0, 0, 0])];
            tensor<fp16, [64, 96, 1, 1]> model_16_cv2_conv_weight_to_fp16_palettized = constexpr_lut_to_dense()[indices = tensor<uint8, [6144]>(BLOBFILE(path = tensor<string, []>("@model_path/weights/weight.bin"), offset = tensor<uint64, []>(1535680))), lut = tensor<fp16, [256]>(BLOBFILE(path = tensor<string, []>("@model_path/weights/weight.bin"), offset = tensor<uint64, []>(1541888))), name = tensor<string, []>("model_16_cv2_conv_weight_to_fp16_palettized"), shape = tensor<uint32, [4]>([64, 96, 1, 1])];
            tensor<fp16, [64]> model_16_cv2_conv_bias_to_fp16 = const()[name = tensor<string, []>("model_16_cv2_conv_bias_to_fp16"), val = tensor<fp16, [64]>(BLOBFILE(path = tensor<string, []>("@model_path/weights/weight.bin"), offset = tensor<uint64, []>(1542464)))];
            tensor<fp16, [1, 64, 80, 48]> input_185_cast_fp16 = conv(bias = model_16_cv2_conv_bias_to_fp16, dilations = var_714, groups = var_668, pad = input_185_pad_0, pad_type = input_185_pad_type_0, strides = var_712, weight = model_16_cv2_conv_weight_to_fp16_palettized, x = input_183_cast_fp16)[name = tensor<string, []>("input_185_cast_fp16")];
            tensor<fp16, [1, 64, 80, 48]> input_187_cast_fp16 = silu(x = input_185_cast_fp16)[name = tensor<string, []>("input_187_cast_fp16")];
            tensor<int32, []> var_719 = const()[name = tensor<string, []>("op_719"), val = tensor<int32, []>(1)];
            tensor<int32, [2]> var_726 = const()[name = tensor<string, []>("op_726"), val = tensor<int32, [2]>([2, 2])];
            tensor<int32, [2]> var_728 = const()[name = tensor<string, []>("op_728"), val = tensor<int32, [2]>([1, 1])];
            tensor<string, []> input_189_pad_type_0 = const()[name = tensor<string, []>("input_189_pad_type_0"), val = tensor<string, []>("custom")];
            tensor<int32, [4]> input_189_pad_0 = const()[name = tensor<string, []>("input_189_pad_0"), val = tensor<int32, [4]>([1, 1, 1, 1])];
            tensor<fp16, [64, 64, 3, 3]> model_17_conv_weight_to_fp16_palettized = constexpr_lut_to_dense()[indices = tensor<uint8, [36864]>(BLOBFILE(path = tensor<string, []>("@model_path/weights/weight.bin"), offset = tensor<uint64, []>(1542656))), lut = tensor<fp16, [256]>(BLOBFILE(path = tensor<string, []>("@model_path/weights/weight.bin"), offset = tensor<uint64, []>(1579584))), name = tensor<string, []>("model_17_conv_weight_to_fp16_palettized"), shape = tensor<uint32, [4]>([64, 64, 3, 3])];
            tensor<fp16, [64]> model_17_conv_bias_to_fp16 = const()[name = tensor<string, []>("model_17_conv_bias_to_fp16"), val = tensor<fp16, [64]>(BLOBFILE(path = tensor<string, []>("@model_path/weights/weight.bin"), offset = tensor<uint64, []>(1580160)))];
            tensor<fp16, [1, 64, 40, 24]> input_189_cast_fp16 = conv(bias = model_17_conv_bias_to_fp16, dilations = var_728, groups = var_719, pad = input_189_pad_0, pad_type = input_189_pad_type_0, strides = var_726, weight = model_17_conv_weight_to_fp16_palettized, x = input_187_cast_fp16)[name = tensor<string, []>("input_189_cast_fp16")];
            tensor<fp16, [1, 64, 40, 24]> var_731_cast_fp16 = silu(x = input_189_cast_fp16)[name = tensor<string, []>("op_731_cast_fp16")];
            tensor<int32, []> var_732 = const()[name = tensor<string, []>("op_732"), val = tensor<int32, []>(1)];
            tensor<bool, []> input_191_interleave_0 = const()[name = tensor<string, []>("input_191_interleave_0"), val = tensor<bool, []>(false)];
            tensor<fp16, [1, 192, 40, 24]> input_191_cast_fp16 = concat(axis = var_732, interleave = input_191_interleave_0, values = (var_731_cast_fp16, input_169_cast_fp16))[name = tensor<string, []>("input_191_cast_fp16")];
            tensor<int32, []> var_739 = const()[name = tensor<string, []>("op_739"), val = tensor<int32, []>(1)];
            tensor<int32, [2]> var_747 = const()[name = tensor<string, []>("op_747"), val = tensor<int32, [2]>([1, 1])];
            tensor<int32, [2]> var_749 = const()[name = tensor<string, []>("op_749"), val = tensor<int32, [2]>([1, 1])];
            tensor<string, []> input_193_pad_type_0 = const()[name = tensor<string, []>("input_193_pad_type_0"), val = tensor<string, []>("custom")];
            tensor<int32, [4]> input_193_pad_0 = const()[name = tensor<string, []>("input_193_pad_0"), val = tensor<int32, [4]>([0, 0, 0, 0])];
            tensor<fp16, [128, 192, 1, 1]> model_19_cv1_conv_weight_to_fp16_palettized = constexpr_lut_to_dense()[indices = tensor<uint8, [24576]>(BLOBFILE(path = tensor<string, []>("@model_path/weights/weight.bin"), offset = tensor<uint64, []>(1580352))), lut = tensor<fp16, [256]>(BLOBFILE(path = tensor<string, []>("@model_path/weights/weight.bin"), offset = tensor<uint64, []>(1604992))), name = tensor<string, []>("model_19_cv1_conv_weight_to_fp16_palettized"), shape = tensor<uint32, [4]>([128, 192, 1, 1])];
            tensor<fp16, [128]> model_19_cv1_conv_bias_to_fp16 = const()[name = tensor<string, []>("model_19_cv1_conv_bias_to_fp16"), val = tensor<fp16, [128]>(BLOBFILE(path = tensor<string, []>("@model_path/weights/weight.bin"), offset = tensor<uint64, []>(1605568)))];
            tensor<fp16, [1, 128, 40, 24]> input_193_cast_fp16 = conv(bias = model_19_cv1_conv_bias_to_fp16, dilations = var_749, groups = var_739, pad = input_193_pad_0, pad_type = input_193_pad_type_0, strides = var_747, weight = model_19_cv1_conv_weight_to_fp16_palettized, x = input_191_cast_fp16)[name = tensor<string, []>("input_193_cast_fp16")];
            tensor<fp16, [1, 128, 40, 24]> var_752_cast_fp16 = silu(x = input_193_cast_fp16)[name = tensor<string, []>("op_752_cast_fp16")];
            tensor<int32, [2]> var_753 = const()[name = tensor<string, []>("op_753"), val = tensor<int32, [2]>([64, 64])];
            tensor<int32, []> var_754_axis_0 = const()[name = tensor<string, []>("op_754_axis_0"), val = tensor<int32, []>(1)];
            tensor<fp16, [1, 64, 40, 24]> var_754_cast_fp16_0, tensor<fp16, [1, 64, 40, 24]> var_754_cast_fp16_1 = split(axis = var_754_axis_0, split_sizes = var_753, x = var_752_cast_fp16)[name = tensor<string, []>("op_754_cast_fp16")];
            tensor<int32, [2]> var_762 = const()[name = tensor<string, []>("op_762"), val = tensor<int32, [2]>([1, 1])];
            tensor<int32, [2]> var_764 = const()[name = tensor<string, []>("op_764"), val = tensor<int32, [2]>([1, 1])];
            tensor<string, []> input_197_pad_type_0 = const()[name = tensor<string, []>("input_197_pad_type_0"), val = tensor<string, []>("custom")];
            tensor<int32, [4]> input_197_pad_0 = const()[name = tensor<string, []>("input_197_pad_0"), val = tensor<int32, [4]>([1, 1, 1, 1])];
            tensor<fp16, [32, 64, 3, 3]> model_19_m_0_cv1_conv_weight_to_fp16_palettized = constexpr_lut_to_dense()[indices = tensor<uint8, [18432]>(BLOBFILE(path = tensor<string, []>("@model_path/weights/weight.bin"), offset = tensor<uint64, []>(1605888))), lut = tensor<fp16, [256]>(BLOBFILE(path = tensor<string, []>("@model_path/weights/weight.bin"), offset = tensor<uint64, []>(1624384))), name = tensor<string, []>("model_19_m_0_cv1_conv_weight_to_fp16_palettized"), shape = tensor<uint32, [4]>([32, 64, 3, 3])];
            tensor<fp16, [32]> model_19_m_0_cv1_conv_bias_to_fp16 = const()[name = tensor<string, []>("model_19_m_0_cv1_conv_bias_to_fp16"), val = tensor<fp16, [32]>(BLOBFILE(path = tensor<string, []>("@model_path/weights/weight.bin"), offset = tensor<uint64, []>(1624960)))];
            tensor<fp16, [1, 32, 40, 24]> input_197_cast_fp16 = conv(bias = model_19_m_0_cv1_conv_bias_to_fp16, dilations = var_764, groups = var_739, pad = input_197_pad_0, pad_type = input_197_pad_type_0, strides = var_762, weight = model_19_m_0_cv1_conv_weight_to_fp16_palettized, x = var_754_cast_fp16_1)[name = tensor<string, []>("input_197_cast_fp16")];
            tensor<fp16, [1, 32, 40, 24]> input_199_cast_fp16 = silu(x = input_197_cast_fp16)[name = tensor<string, []>("input_199_cast_fp16")];
            tensor<int32, [2]> var_771 = const()[name = tensor<string, []>("op_771"), val = tensor<int32, [2]>([1, 1])];
            tensor<int32, [2]> var_773 = const()[name = tensor<string, []>("op_773"), val = tensor<int32, [2]>([1, 1])];
            tensor<string, []> input_201_pad_type_0 = const()[name = tensor<string, []>("input_201_pad_type_0"), val = tensor<string, []>("custom")];
            tensor<int32, [4]> input_201_pad_0 = const()[name = tensor<string, []>("input_201_pad_0"), val = tensor<int32, [4]>([1, 1, 1, 1])];
            tensor<fp16, [64, 32, 3, 3]> model_19_m_0_cv2_conv_weight_to_fp16_palettized = constexpr_lut_to_dense()[indices = tensor<uint8, [18432]>(BLOBFILE(path = tensor<string, []>("@model_path/weights/weight.bin"), offset = tensor<uint64, []>(1625088))), lut = tensor<fp16, [256]>(BLOBFILE(path = tensor<string, []>("@model_path/weights/weight.bin"), offset = tensor<uint64, []>(1643584))), name = tensor<string, []>("model_19_m_0_cv2_conv_weight_to_fp16_palettized"), shape = tensor<uint32, [4]>([64, 32, 3, 3])];
            tensor<fp16, [64]> model_19_m_0_cv2_conv_bias_to_fp16 = const()[name = tensor<string, []>("model_19_m_0_cv2_conv_bias_to_fp16"), val = tensor<fp16, [64]>(BLOBFILE(path = tensor<string, []>("@model_path/weights/weight.bin"), offset = tensor<uint64, []>(1644160)))];
            tensor<fp16, [1, 64, 40, 24]> input_201_cast_fp16 = conv(bias = model_19_m_0_cv2_conv_bias_to_fp16, dilations = var_773, groups = var_739, pad = input_201_pad_0, pad_type = input_201_pad_type_0, strides = var_771, weight = model_19_m_0_cv2_conv_weight_to_fp16_palettized, x = input_199_cast_fp16)[name = tensor<string, []>("input_201_cast_fp16")];
            tensor<fp16, [1, 64, 40, 24]> var_776_cast_fp16 = silu(x = input_201_cast_fp16)[name = tensor<string, []>("op_776_cast_fp16")];
            tensor<fp16, [1, 64, 40, 24]> var_777_cast_fp16 = add(x = var_754_cast_fp16_1, y = var_776_cast_fp16)[name = tensor<string, []>("op_777_cast_fp16")];
            tensor<bool, []> input_203_interleave_0 = const()[name = tensor<string, []>("input_203_interleave_0"), val = tensor<bool, []>(false)];
            tensor<fp16, [1, 192, 40, 24]> input_203_cast_fp16 = concat(axis = var_739, interleave = input_203_interleave_0, values = (var_754_cast_fp16_0, var_754_cast_fp16_1, var_777_cast_fp16))[name = tensor<string, []>("input_203_cast_fp16")];
            tensor<int32, [2]> var_783 = const()[name = tensor<string, []>("op_783"), val = tensor<int32, [2]>([1, 1])];
            tensor<int32, [2]> var_785 = const()[name = tensor<string, []>("op_785"), val = tensor<int32, [2]>([1, 1])];
            tensor<string, []> input_205_pad_type_0 = const()[name = tensor<string, []>("input_205_pad_type_0"), val = tensor<string, []>("custom")];
            tensor<int32, [4]> input_205_pad_0 = const()[name = tensor<string, []>("input_205_pad_0"), val = tensor<int32, [4]>([0, 0, 0, 0])];
            tensor<fp16, [128, 192, 1, 1]> model_19_cv2_conv_weight_to_fp16_palettized = constexpr_lut_to_dense()[indices = tensor<uint8, [24576]>(BLOBFILE(path = tensor<string, []>("@model_path/weights/weight.bin"), offset = tensor<uint64, []>(1644352))), lut = tensor<fp16, [256]>(BLOBFILE(path = tensor<string, []>("@model_path/weights/weight.bin"), offset = tensor<uint64, []>(1668992))), name = tensor<string, []>("model_19_cv2_conv_weight_to_fp16_palettized"), shape = tensor<uint32, [4]>([128, 192, 1, 1])];
            tensor<fp16, [128]> model_19_cv2_conv_bias_to_fp16 = const()[name = tensor<string, []>("model_19_cv2_conv_bias_to_fp16"), val = tensor<fp16, [128]>(BLOBFILE(path = tensor<string, []>("@model_path/weights/weight.bin"), offset = tensor<uint64, []>(1669568)))];
            tensor<fp16, [1, 128, 40, 24]> input_205_cast_fp16 = conv(bias = model_19_cv2_conv_bias_to_fp16, dilations = var_785, groups = var_739, pad = input_205_pad_0, pad_type = input_205_pad_type_0, strides = var_783, weight = model_19_cv2_conv_weight_to_fp16_palettized, x = input_203_cast_fp16)[name = tensor<string, []>("input_205_cast_fp16")];
            tensor<fp16, [1, 128, 40, 24]> input_207_cast_fp16 = silu(x = input_205_cast_fp16)[name = tensor<string, []>("input_207_cast_fp16")];
            tensor<int32, []> var_790 = const()[name = tensor<string, []>("op_790"), val = tensor<int32, []>(1)];
            tensor<int32, [2]> var_797 = const()[name = tensor<string, []>("op_797"), val = tensor<int32, [2]>([2, 2])];
            tensor<int32, [2]> var_799 = const()[name = tensor<string, []>("op_799"), val = tensor<int32, [2]>([1, 1])];
            tensor<string, []> input_209_pad_type_0 = const()[name = tensor<string, []>("input_209_pad_type_0"), val = tensor<string, []>("custom")];
            tensor<int32, [4]> input_209_pad_0 = const()[name = tensor<string, []>("input_209_pad_0"), val = tensor<int32, [4]>([1, 1, 1, 1])];
            tensor<fp16, [128, 128, 3, 3]> model_20_conv_weight_to_fp16_palettized = constexpr_lut_to_dense()[indices = tensor<uint8, [147456]>(BLOBFILE(path = tensor<string, []>("@model_path/weights/weight.bin"), offset = tensor<uint64, []>(1669888))), lut = tensor<fp16, [256]>(BLOBFILE(path = tensor<string, []>("@model_path/weights/weight.bin"), offset = tensor<uint64, []>(1817408))), name = tensor<string, []>("model_20_conv_weight_to_fp16_palettized"), shape = tensor<uint32, [4]>([128, 128, 3, 3])];
            tensor<fp16, [128]> model_20_conv_bias_to_fp16 = const()[name = tensor<string, []>("model_20_conv_bias_to_fp16"), val = tensor<fp16, [128]>(BLOBFILE(path = tensor<string, []>("@model_path/weights/weight.bin"), offset = tensor<uint64, []>(1817984)))];
            tensor<fp16, [1, 128, 20, 12]> input_209_cast_fp16 = conv(bias = model_20_conv_bias_to_fp16, dilations = var_799, groups = var_790, pad = input_209_pad_0, pad_type = input_209_pad_type_0, strides = var_797, weight = model_20_conv_weight_to_fp16_palettized, x = input_207_cast_fp16)[name = tensor<string, []>("input_209_cast_fp16")];
            tensor<fp16, [1, 128, 20, 12]> var_802_cast_fp16 = silu(x = input_209_cast_fp16)[name = tensor<string, []>("op_802_cast_fp16")];
            tensor<int32, []> var_803 = const()[name = tensor<string, []>("op_803"), val = tensor<int32, []>(1)];
            tensor<bool, []> input_211_interleave_0 = const()[name = tensor<string, []>("input_211_interleave_0"), val = tensor<bool, []>(false)];
            tensor<fp16, [1, 384, 20, 12]> input_211_cast_fp16 = concat(axis = var_803, interleave = input_211_interleave_0, values = (var_802_cast_fp16, input_151_cast_fp16))[name = tensor<string, []>("input_211_cast_fp16")];
            tensor<int32, []> var_810 = const()[name = tensor<string, []>("op_810"), val = tensor<int32, []>(1)];
            tensor<int32, [2]> var_818 = const()[name = tensor<string, []>("op_818"), val = tensor<int32, [2]>([1, 1])];
            tensor<int32, [2]> var_820 = const()[name = tensor<string, []>("op_820"), val = tensor<int32, [2]>([1, 1])];
            tensor<string, []> input_213_pad_type_0 = const()[name = tensor<string, []>("input_213_pad_type_0"), val = tensor<string, []>("custom")];
            tensor<int32, [4]> input_213_pad_0 = const()[name = tensor<string, []>("input_213_pad_0"), val = tensor<int32, [4]>([0, 0, 0, 0])];
            tensor<fp16, [256, 384, 1, 1]> model_22_cv1_conv_weight_to_fp16_palettized = constexpr_lut_to_dense()[indices = tensor<uint8, [98304]>(BLOBFILE(path = tensor<string, []>("@model_path/weights/weight.bin"), offset = tensor<uint64, []>(1818304))), lut = tensor<fp16, [256]>(BLOBFILE(path = tensor<string, []>("@model_path/weights/weight.bin"), offset = tensor<uint64, []>(1916672))), name = tensor<string, []>("model_22_cv1_conv_weight_to_fp16_palettized"), shape = tensor<uint32, [4]>([256, 384, 1, 1])];
            tensor<fp16, [256]> model_22_cv1_conv_bias_to_fp16 = const()[name = tensor<string, []>("model_22_cv1_conv_bias_to_fp16"), val = tensor<fp16, [256]>(BLOBFILE(path = tensor<string, []>("@model_path/weights/weight.bin"), offset = tensor<uint64, []>(1917248)))];
            tensor<fp16, [1, 256, 20, 12]> input_213_cast_fp16 = conv(bias = model_22_cv1_conv_bias_to_fp16, dilations = var_820, groups = var_810, pad = input_213_pad_0, pad_type = input_213_pad_type_0, strides = var_818, weight = model_22_cv1_conv_weight_to_fp16_palettized, x = input_211_cast_fp16)[name = tensor<string, []>("input_213_cast_fp16")];
            tensor<fp16, [1, 256, 20, 12]> var_823_cast_fp16 = silu(x = input_213_cast_fp16)[name = tensor<string, []>("op_823_cast_fp16")];
            tensor<int32, [2]> var_824 = const()[name = tensor<string, []>("op_824"), val = tensor<int32, [2]>([128, 128])];
            tensor<int32, []> var_825_axis_0 = const()[name = tensor<string, []>("op_825_axis_0"), val = tensor<int32, []>(1)];
            tensor<fp16, [1, 128, 20, 12]> var_825_cast_fp16_0, tensor<fp16, [1, 128, 20, 12]> var_825_cast_fp16_1 = split(axis = var_825_axis_0, split_sizes = var_824, x = var_823_cast_fp16)[name = tensor<string, []>("op_825_cast_fp16")];
            tensor<int32, [2]> var_835 = const()[name = tensor<string, []>("op_835"), val = tensor<int32, [2]>([1, 1])];
            tensor<int32, [2]> var_837 = const()[name = tensor<string, []>("op_837"), val = tensor<int32, [2]>([1, 1])];
            tensor<string, []> input_217_pad_type_0 = const()[name = tensor<string, []>("input_217_pad_type_0"), val = tensor<string, []>("custom")];
            tensor<int32, [4]> input_217_pad_0 = const()[name = tensor<string, []>("input_217_pad_0"), val = tensor<int32, [4]>([0, 0, 0, 0])];
            tensor<fp16, [64, 128, 1, 1]> model_22_m_0_cv1_conv_weight_to_fp16_palettized = constexpr_lut_to_dense()[indices = tensor<uint8, [8192]>(BLOBFILE(path = tensor<string, []>("@model_path/weights/weight.bin"), offset = tensor<uint64, []>(1917824))), lut = tensor<fp16, [256]>(BLOBFILE(path = tensor<string, []>("@model_path/weights/weight.bin"), offset = tensor<uint64, []>(1926080))), name = tensor<string, []>("model_22_m_0_cv1_conv_weight_to_fp16_palettized"), shape = tensor<uint32, [4]>([64, 128, 1, 1])];
            tensor<fp16, [64]> model_22_m_0_cv1_conv_bias_to_fp16 = const()[name = tensor<string, []>("model_22_m_0_cv1_conv_bias_to_fp16"), val = tensor<fp16, [64]>(BLOBFILE(path = tensor<string, []>("@model_path/weights/weight.bin"), offset = tensor<uint64, []>(1926656)))];
            tensor<fp16, [1, 64, 20, 12]> input_217_cast_fp16 = conv(bias = model_22_m_0_cv1_conv_bias_to_fp16, dilations = var_837, groups = var_810, pad = input_217_pad_0, pad_type = input_217_pad_type_0, strides = var_835, weight = model_22_m_0_cv1_conv_weight_to_fp16_palettized, x = var_825_cast_fp16_1)[name = tensor<string, []>("input_217_cast_fp16")];
            tensor<fp16, [1, 64, 20, 12]> input_219_cast_fp16 = silu(x = input_217_cast_fp16)[name = tensor<string, []>("input_219_cast_fp16")];
            tensor<int32, [2]> var_848 = const()[name = tensor<string, []>("op_848"), val = tensor<int32, [2]>([1, 1])];
            tensor<int32, [2]> var_850 = const()[name = tensor<string, []>("op_850"), val = tensor<int32, [2]>([1, 1])];
            tensor<string, []> input_221_pad_type_0 = const()[name = tensor<string, []>("input_221_pad_type_0"), val = tensor<string, []>("custom")];
            tensor<int32, [4]> input_221_pad_0 = const()[name = tensor<string, []>("input_221_pad_0"), val = tensor<int32, [4]>([1, 1, 1, 1])];
            tensor<fp16, [64, 64, 3, 3]> model_22_m_0_m_0_cv1_conv_weight_to_fp16_palettized = constexpr_lut_to_dense()[indices = tensor<uint8, [36864]>(BLOBFILE(path = tensor<string, []>("@model_path/weights/weight.bin"), offset = tensor<uint64, []>(1926848))), lut = tensor<fp16, [256]>(BLOBFILE(path = tensor<string, []>("@model_path/weights/weight.bin"), offset = tensor<uint64, []>(1963776))), name = tensor<string, []>("model_22_m_0_m_0_cv1_conv_weight_to_fp16_palettized"), shape = tensor<uint32, [4]>([64, 64, 3, 3])];
            tensor<fp16, [64]> model_22_m_0_m_0_cv1_conv_bias_to_fp16 = const()[name = tensor<string, []>("model_22_m_0_m_0_cv1_conv_bias_to_fp16"), val = tensor<fp16, [64]>(BLOBFILE(path = tensor<string, []>("@model_path/weights/weight.bin"), offset = tensor<uint64, []>(1964352)))];
            tensor<fp16, [1, 64, 20, 12]> input_221_cast_fp16 = conv(bias = model_22_m_0_m_0_cv1_conv_bias_to_fp16, dilations = var_850, groups = var_810, pad = input_221_pad_0, pad_type = input_221_pad_type_0, strides = var_848, weight = model_22_m_0_m_0_cv1_conv_weight_to_fp16_palettized, x = input_219_cast_fp16)[name = tensor<string, []>("input_221_cast_fp16")];
            tensor<fp16, [1, 64, 20, 12]> input_223_cast_fp16 = silu(x = input_221_cast_fp16)[name = tensor<string, []>("input_223_cast_fp16")];
            tensor<int32, [2]> var_857 = const()[name = tensor<string, []>("op_857"), val = tensor<int32, [2]>([1, 1])];
            tensor<int32, [2]> var_859 = const()[name = tensor<string, []>("op_859"), val = tensor<int32, [2]>([1, 1])];
            tensor<string, []> input_225_pad_type_0 = const()[name = tensor<string, []>("input_225_pad_type_0"), val = tensor<string, []>("custom")];
            tensor<int32, [4]> input_225_pad_0 = const()[name = tensor<string, []>("input_225_pad_0"), val = tensor<int32, [4]>([1, 1, 1, 1])];
            tensor<fp16, [64, 64, 3, 3]> model_22_m_0_m_0_cv2_conv_weight_to_fp16_palettized = constexpr_lut_to_dense()[indices = tensor<uint8, [36864]>(BLOBFILE(path = tensor<string, []>("@model_path/weights/weight.bin"), offset = tensor<uint64, []>(1964544))), lut = tensor<fp16, [256]>(BLOBFILE(path = tensor<string, []>("@model_path/weights/weight.bin"), offset = tensor<uint64, []>(2001472))), name = tensor<string, []>("model_22_m_0_m_0_cv2_conv_weight_to_fp16_palettized"), shape = tensor<uint32, [4]>([64, 64, 3, 3])];
            tensor<fp16, [64]> model_22_m_0_m_0_cv2_conv_bias_to_fp16 = const()[name = tensor<string, []>("model_22_m_0_m_0_cv2_conv_bias_to_fp16"), val = tensor<fp16, [64]>(BLOBFILE(path = tensor<string, []>("@model_path/weights/weight.bin"), offset = tensor<uint64, []>(2002048)))];
            tensor<fp16, [1, 64, 20, 12]> input_225_cast_fp16 = conv(bias = model_22_m_0_m_0_cv2_conv_bias_to_fp16, dilations = var_859, groups = var_810, pad = input_225_pad_0, pad_type = input_225_pad_type_0, strides = var_857, weight = model_22_m_0_m_0_cv2_conv_weight_to_fp16_palettized, x = input_223_cast_fp16)[name = tensor<string, []>("input_225_cast_fp16")];
            tensor<fp16, [1, 64, 20, 12]> var_862_cast_fp16 = silu(x = input_225_cast_fp16)[name = tensor<string, []>("op_862_cast_fp16")];
            tensor<fp16, [1, 64, 20, 12]> input_227_cast_fp16 = add(x = input_219_cast_fp16, y = var_862_cast_fp16)[name = tensor<string, []>("input_227_cast_fp16")];
            tensor<int32, [2]> var_869 = const()[name = tensor<string, []>("op_869"), val = tensor<int32, [2]>([1, 1])];
            tensor<int32, [2]> var_871 = const()[name = tensor<string, []>("op_871"), val = tensor<int32, [2]>([1, 1])];
            tensor<string, []> input_229_pad_type_0 = const()[name = tensor<string, []>("input_229_pad_type_0"), val = tensor<string, []>("custom")];
            tensor<int32, [4]> input_229_pad_0 = const()[name = tensor<string, []>("input_229_pad_0"), val = tensor<int32, [4]>([1, 1, 1, 1])];
            tensor<fp16, [64, 64, 3, 3]> model_22_m_0_m_1_cv1_conv_weight_to_fp16_palettized = constexpr_lut_to_dense()[indices = tensor<uint8, [36864]>(BLOBFILE(path = tensor<string, []>("@model_path/weights/weight.bin"), offset = tensor<uint64, []>(2002240))), lut = tensor<fp16, [256]>(BLOBFILE(path = tensor<string, []>("@model_path/weights/weight.bin"), offset = tensor<uint64, []>(2039168))), name = tensor<string, []>("model_22_m_0_m_1_cv1_conv_weight_to_fp16_palettized"), shape = tensor<uint32, [4]>([64, 64, 3, 3])];
            tensor<fp16, [64]> model_22_m_0_m_1_cv1_conv_bias_to_fp16 = const()[name = tensor<string, []>("model_22_m_0_m_1_cv1_conv_bias_to_fp16"), val = tensor<fp16, [64]>(BLOBFILE(path = tensor<string, []>("@model_path/weights/weight.bin"), offset = tensor<uint64, []>(2039744)))];
            tensor<fp16, [1, 64, 20, 12]> input_229_cast_fp16 = conv(bias = model_22_m_0_m_1_cv1_conv_bias_to_fp16, dilations = var_871, groups = var_810, pad = input_229_pad_0, pad_type = input_229_pad_type_0, strides = var_869, weight = model_22_m_0_m_1_cv1_conv_weight_to_fp16_palettized, x = input_227_cast_fp16)[name = tensor<string, []>("input_229_cast_fp16")];
            tensor<fp16, [1, 64, 20, 12]> input_231_cast_fp16 = silu(x = input_229_cast_fp16)[name = tensor<string, []>("input_231_cast_fp16")];
            tensor<int32, [2]> var_878 = const()[name = tensor<string, []>("op_878"), val = tensor<int32, [2]>([1, 1])];
            tensor<int32, [2]> var_880 = const()[name = tensor<string, []>("op_880"), val = tensor<int32, [2]>([1, 1])];
            tensor<string, []> input_233_pad_type_0 = const()[name = tensor<string, []>("input_233_pad_type_0"), val = tensor<string, []>("custom")];
            tensor<int32, [4]> input_233_pad_0 = const()[name = tensor<string, []>("input_233_pad_0"), val = tensor<int32, [4]>([1, 1, 1, 1])];
            tensor<fp16, [64, 64, 3, 3]> model_22_m_0_m_1_cv2_conv_weight_to_fp16_palettized = constexpr_lut_to_dense()[indices = tensor<uint8, [36864]>(BLOBFILE(path = tensor<string, []>("@model_path/weights/weight.bin"), offset = tensor<uint64, []>(2039936))), lut = tensor<fp16, [256]>(BLOBFILE(path = tensor<string, []>("@model_path/weights/weight.bin"), offset = tensor<uint64, []>(2076864))), name = tensor<string, []>("model_22_m_0_m_1_cv2_conv_weight_to_fp16_palettized"), shape = tensor<uint32, [4]>([64, 64, 3, 3])];
            tensor<fp16, [64]> model_22_m_0_m_1_cv2_conv_bias_to_fp16 = const()[name = tensor<string, []>("model_22_m_0_m_1_cv2_conv_bias_to_fp16"), val = tensor<fp16, [64]>(BLOBFILE(path = tensor<string, []>("@model_path/weights/weight.bin"), offset = tensor<uint64, []>(2077440)))];
            tensor<fp16, [1, 64, 20, 12]> input_233_cast_fp16 = conv(bias = model_22_m_0_m_1_cv2_conv_bias_to_fp16, dilations = var_880, groups = var_810, pad = input_233_pad_0, pad_type = input_233_pad_type_0, strides = var_878, weight = model_22_m_0_m_1_cv2_conv_weight_to_fp16_palettized, x = input_231_cast_fp16)[name = tensor<string, []>("input_233_cast_fp16")];
            tensor<fp16, [1, 64, 20, 12]> var_883_cast_fp16 = silu(x = input_233_cast_fp16)[name = tensor<string, []>("op_883_cast_fp16")];
            tensor<fp16, [1, 64, 20, 12]> var_884_cast_fp16 = add(x = input_227_cast_fp16, y = var_883_cast_fp16)[name = tensor<string, []>("op_884_cast_fp16")];
            tensor<int32, [2]> var_888 = const()[name = tensor<string, []>("op_888"), val = tensor<int32, [2]>([1, 1])];
            tensor<int32, [2]> var_890 = const()[name = tensor<string, []>("op_890"), val = tensor<int32, [2]>([1, 1])];
            tensor<string, []> input_235_pad_type_0 = const()[name = tensor<string, []>("input_235_pad_type_0"), val = tensor<string, []>("custom")];
            tensor<int32, [4]> input_235_pad_0 = const()[name = tensor<string, []>("input_235_pad_0"), val = tensor<int32, [4]>([0, 0, 0, 0])];
            tensor<fp16, [64, 128, 1, 1]> model_22_m_0_cv2_conv_weight_to_fp16_palettized = constexpr_lut_to_dense()[indices = tensor<uint8, [8192]>(BLOBFILE(path = tensor<string, []>("@model_path/weights/weight.bin"), offset = tensor<uint64, []>(2077632))), lut = tensor<fp16, [256]>(BLOBFILE(path = tensor<string, []>("@model_path/weights/weight.bin"), offset = tensor<uint64, []>(2085888))), name = tensor<string, []>("model_22_m_0_cv2_conv_weight_to_fp16_palettized"), shape = tensor<uint32, [4]>([64, 128, 1, 1])];
            tensor<fp16, [64]> model_22_m_0_cv2_conv_bias_to_fp16 = const()[name = tensor<string, []>("model_22_m_0_cv2_conv_bias_to_fp16"), val = tensor<fp16, [64]>(BLOBFILE(path = tensor<string, []>("@model_path/weights/weight.bin"), offset = tensor<uint64, []>(2086464)))];
            tensor<fp16, [1, 64, 20, 12]> input_235_cast_fp16 = conv(bias = model_22_m_0_cv2_conv_bias_to_fp16, dilations = var_890, groups = var_810, pad = input_235_pad_0, pad_type = input_235_pad_type_0, strides = var_888, weight = model_22_m_0_cv2_conv_weight_to_fp16_palettized, x = var_825_cast_fp16_1)[name = tensor<string, []>("input_235_cast_fp16")];
            tensor<fp16, [1, 64, 20, 12]> var_893_cast_fp16 = silu(x = input_235_cast_fp16)[name = tensor<string, []>("op_893_cast_fp16")];
            tensor<bool, []> input_237_interleave_0 = const()[name = tensor<string, []>("input_237_interleave_0"), val = tensor<bool, []>(false)];
            tensor<fp16, [1, 128, 20, 12]> input_237_cast_fp16 = concat(axis = var_810, interleave = input_237_interleave_0, values = (var_884_cast_fp16, var_893_cast_fp16))[name = tensor<string, []>("input_237_cast_fp16")];
            tensor<int32, [2]> var_899 = const()[name = tensor<string, []>("op_899"), val = tensor<int32, [2]>([1, 1])];
            tensor<int32, [2]> var_901 = const()[name = tensor<string, []>("op_901"), val = tensor<int32, [2]>([1, 1])];
            tensor<string, []> input_239_pad_type_0 = const()[name = tensor<string, []>("input_239_pad_type_0"), val = tensor<string, []>("custom")];
            tensor<int32, [4]> input_239_pad_0 = const()[name = tensor<string, []>("input_239_pad_0"), val = tensor<int32, [4]>([0, 0, 0, 0])];
            tensor<fp16, [128, 128, 1, 1]> model_22_m_0_cv3_conv_weight_to_fp16_palettized = constexpr_lut_to_dense()[indices = tensor<uint8, [16384]>(BLOBFILE(path = tensor<string, []>("@model_path/weights/weight.bin"), offset = tensor<uint64, []>(2086656))), lut = tensor<fp16, [256]>(BLOBFILE(path = tensor<string, []>("@model_path/weights/weight.bin"), offset = tensor<uint64, []>(2103104))), name = tensor<string, []>("model_22_m_0_cv3_conv_weight_to_fp16_palettized"), shape = tensor<uint32, [4]>([128, 128, 1, 1])];
            tensor<fp16, [128]> model_22_m_0_cv3_conv_bias_to_fp16 = const()[name = tensor<string, []>("model_22_m_0_cv3_conv_bias_to_fp16"), val = tensor<fp16, [128]>(BLOBFILE(path = tensor<string, []>("@model_path/weights/weight.bin"), offset = tensor<uint64, []>(2103680)))];
            tensor<fp16, [1, 128, 20, 12]> input_239_cast_fp16 = conv(bias = model_22_m_0_cv3_conv_bias_to_fp16, dilations = var_901, groups = var_810, pad = input_239_pad_0, pad_type = input_239_pad_type_0, strides = var_899, weight = model_22_m_0_cv3_conv_weight_to_fp16_palettized, x = input_237_cast_fp16)[name = tensor<string, []>("input_239_cast_fp16")];
            tensor<fp16, [1, 128, 20, 12]> var_904_cast_fp16 = silu(x = input_239_cast_fp16)[name = tensor<string, []>("op_904_cast_fp16")];
            tensor<bool, []> input_241_interleave_0 = const()[name = tensor<string, []>("input_241_interleave_0"), val = tensor<bool, []>(false)];
            tensor<fp16, [1, 384, 20, 12]> input_241_cast_fp16 = concat(axis = var_810, interleave = input_241_interleave_0, values = (var_825_cast_fp16_0, var_825_cast_fp16_1, var_904_cast_fp16))[name = tensor<string, []>("input_241_cast_fp16")];
            tensor<int32, [2]> var_910 = const()[name = tensor<string, []>("op_910"), val = tensor<int32, [2]>([1, 1])];
            tensor<int32, [2]> var_912 = const()[name = tensor<string, []>("op_912"), val = tensor<int32, [2]>([1, 1])];
            tensor<string, []> input_243_pad_type_0 = const()[name = tensor<string, []>("input_243_pad_type_0"), val = tensor<string, []>("custom")];
            tensor<int32, [4]> input_243_pad_0 = const()[name = tensor<string, []>("input_243_pad_0"), val = tensor<int32, [4]>([0, 0, 0, 0])];
            tensor<fp16, [256, 384, 1, 1]> model_22_cv2_conv_weight_to_fp16_palettized = constexpr_lut_to_dense()[indices = tensor<uint8, [98304]>(BLOBFILE(path = tensor<string, []>("@model_path/weights/weight.bin"), offset = tensor<uint64, []>(2104000))), lut = tensor<fp16, [256]>(BLOBFILE(path = tensor<string, []>("@model_path/weights/weight.bin"), offset = tensor<uint64, []>(2202368))), name = tensor<string, []>("model_22_cv2_conv_weight_to_fp16_palettized"), shape = tensor<uint32, [4]>([256, 384, 1, 1])];
            tensor<fp16, [256]> model_22_cv2_conv_bias_to_fp16 = const()[name = tensor<string, []>("model_22_cv2_conv_bias_to_fp16"), val = tensor<fp16, [256]>(BLOBFILE(path = tensor<string, []>("@model_path/weights/weight.bin"), offset = tensor<uint64, []>(2202944)))];
            tensor<fp16, [1, 256, 20, 12]> input_243_cast_fp16 = conv(bias = model_22_cv2_conv_bias_to_fp16, dilations = var_912, groups = var_810, pad = input_243_pad_0, pad_type = input_243_pad_type_0, strides = var_910, weight = model_22_cv2_conv_weight_to_fp16_palettized, x = input_241_cast_fp16)[name = tensor<string, []>("input_243_cast_fp16")];
            tensor<fp16, [1, 256, 20, 12]> input_261_cast_fp16 = silu(x = input_243_cast_fp16)[name = tensor<string, []>("input_261_cast_fp16")];
            tensor<int32, []> var_924 = const()[name = tensor<string, []>("op_924"), val = tensor<int32, []>(2)];
            tensor<int32, []> var_926 = const()[name = tensor<string, []>("op_926"), val = tensor<int32, []>(256)];
            tensor<int32, []> var_927 = const()[name = tensor<string, []>("op_927"), val = tensor<int32, []>(128)];
            tensor<int32, []> var_928 = const()[name = tensor<string, []>("op_928"), val = tensor<int32, []>(64)];
            tensor<int32, []> var_929 = const()[name = tensor<string, []>("op_929"), val = tensor<int32, []>(-1)];
            tensor<int32, []> var_931 = const()[name = tensor<string, []>("op_931"), val = tensor<int32, []>(1)];
            tensor<int32, [2]> var_961 = const()[name = tensor<string, []>("op_961"), val = tensor<int32, [2]>([1, 1])];
            tensor<int32, [2]> var_963 = const()[name = tensor<string, []>("op_963"), val = tensor<int32, [2]>([1, 1])];
            tensor<string, []> input_245_pad_type_0 = const()[name = tensor<string, []>("input_245_pad_type_0"), val = tensor<string, []>("custom")];
            tensor<int32, [4]> input_245_pad_0 = const()[name = tensor<string, []>("input_245_pad_0"), val = tensor<int32, [4]>([1, 1, 1, 1])];
            tensor<fp16, [51, 64, 3, 3]> model_23_cv4_0_0_conv_weight_to_fp16_palettized = constexpr_lut_to_dense()[indices = tensor<uint8, [29376]>(BLOBFILE(path = tensor<string, []>("@model_path/weights/weight.bin"), offset = tensor<uint64, []>(2203520))), lut = tensor<fp16, [256]>(BLOBFILE(path = tensor<string, []>("@model_path/weights/weight.bin"), offset = tensor<uint64, []>(2232960))), name = tensor<string, []>("model_23_cv4_0_0_conv_weight_to_fp16_palettized"), shape = tensor<uint32, [4]>([51, 64, 3, 3])];
            tensor<fp16, [51]> model_23_cv4_0_0_conv_bias_to_fp16 = const()[name = tensor<string, []>("model_23_cv4_0_0_conv_bias_to_fp16"), val = tensor<fp16, [51]>(BLOBFILE(path = tensor<string, []>("@model_path/weights/weight.bin"), offset = tensor<uint64, []>(2233536)))];
            tensor<fp16, [1, 51, 80, 48]> input_245_cast_fp16 = conv(bias = model_23_cv4_0_0_conv_bias_to_fp16, dilations = var_963, groups = var_931, pad = input_245_pad_0, pad_type = input_245_pad_type_0, strides = var_961, weight = model_23_cv4_0_0_conv_weight_to_fp16_palettized, x = input_187_cast_fp16)[name = tensor<string, []>("input_245_cast_fp16")];
            tensor<fp16, [1, 51, 80, 48]> input_247_cast_fp16 = silu(x = input_245_cast_fp16)[name = tensor<string, []>("input_247_cast_fp16")];
            tensor<int32, [2]> var_970 = const()[name = tensor<string, []>("op_970"), val = tensor<int32, [2]>([1, 1])];
            tensor<int32, [2]> var_972 = const()[name = tensor<string, []>("op_972"), val = tensor<int32, [2]>([1, 1])];
            tensor<string, []> input_249_pad_type_0 = const()[name = tensor<string, []>("input_249_pad_type_0"), val = tensor<string, []>("custom")];
            tensor<int32, [4]> input_249_pad_0 = const()[name = tensor<string, []>("input_249_pad_0"), val = tensor<int32, [4]>([1, 1, 1, 1])];
            tensor<fp16, [51, 51, 3, 3]> model_23_cv4_0_1_conv_weight_to_fp16_palettized = constexpr_lut_to_dense()[indices = tensor<uint8, [23409]>(BLOBFILE(path = tensor<string, []>("@model_path/weights/weight.bin"), offset = tensor<uint64, []>(2233728))), lut = tensor<fp16, [256]>(BLOBFILE(path = tensor<string, []>("@model_path/weights/weight.bin"), offset = tensor<uint64, []>(2257216))), name = tensor<string, []>("model_23_cv4_0_1_conv_weight_to_fp16_palettized"), shape = tensor<uint32, [4]>([51, 51, 3, 3])];
            tensor<fp16, [51]> model_23_cv4_0_1_conv_bias_to_fp16 = const()[name = tensor<string, []>("model_23_cv4_0_1_conv_bias_to_fp16"), val = tensor<fp16, [51]>(BLOBFILE(path = tensor<string, []>("@model_path/weights/weight.bin"), offset = tensor<uint64, []>(2257792)))];
            tensor<fp16, [1, 51, 80, 48]> input_249_cast_fp16 = conv(bias = model_23_cv4_0_1_conv_bias_to_fp16, dilations = var_972, groups = var_931, pad = input_249_pad_0, pad_type = input_249_pad_type_0, strides = var_970, weight = model_23_cv4_0_1_conv_weight_to_fp16_palettized, x = input_247_cast_fp16)[name = tensor<string, []>("input_249_cast_fp16")];
            tensor<fp16, [1, 51, 80, 48]> input_251_cast_fp16 = silu(x = input_249_cast_fp16)[name = tensor<string, []>("input_251_cast_fp16")];
            tensor<int32, [2]> var_978 = const()[name = tensor<string, []>("op_978"), val = tensor<int32, [2]>([1, 1])];
            tensor<int32, [2]> var_980 = const()[name = tensor<string, []>("op_980"), val = tensor<int32, [2]>([1, 1])];
            tensor<string, []> var_982_pad_type_0 = const()[name = tensor<string, []>("op_982_pad_type_0"), val = tensor<string, []>("custom")];
            tensor<int32, [4]> var_982_pad_0 = const()[name = tensor<string, []>("op_982_pad_0"), val = tensor<int32, [4]>([0, 0, 0, 0])];
            tensor<fp16, [51, 51, 1, 1]> model_23_cv4_0_2_weight_to_fp16_palettized = constexpr_lut_to_dense()[indices = tensor<uint8, [2601]>(BLOBFILE(path = tensor<string, []>("@model_path/weights/weight.bin"), offset = tensor<uint64, []>(2257984))), lut = tensor<fp16, [256]>(BLOBFILE(path = tensor<string, []>("@model_path/weights/weight.bin"), offset = tensor<uint64, []>(2260672))), name = tensor<string, []>("model_23_cv4_0_2_weight_to_fp16_palettized"), shape = tensor<uint32, [4]>([51, 51, 1, 1])];
            tensor<fp16, [51]> model_23_cv4_0_2_bias_to_fp16 = const()[name = tensor<string, []>("model_23_cv4_0_2_bias_to_fp16"), val = tensor<fp16, [51]>(BLOBFILE(path = tensor<string, []>("@model_path/weights/weight.bin"), offset = tensor<uint64, []>(2261248)))];
            tensor<fp16, [1, 51, 80, 48]> var_982_cast_fp16 = conv(bias = model_23_cv4_0_2_bias_to_fp16, dilations = var_980, groups = var_931, pad = var_982_pad_0, pad_type = var_982_pad_type_0, strides = var_978, weight = model_23_cv4_0_2_weight_to_fp16_palettized, x = input_251_cast_fp16)[name = tensor<string, []>("op_982_cast_fp16")];
            tensor<int32, [3]> var_983 = const()[name = tensor<string, []>("op_983"), val = tensor<int32, [3]>([1, 51, -1])];
            tensor<fp16, [1, 51, 3840]> var_984_cast_fp16 = reshape(shape = var_983, x = var_982_cast_fp16)[name = tensor<string, []>("op_984_cast_fp16")];
            tensor<int32, [2]> var_991 = const()[name = tensor<string, []>("op_991"), val = tensor<int32, [2]>([1, 1])];
            tensor<int32, [2]> var_993 = const()[name = tensor<string, []>("op_993"), val = tensor<int32, [2]>([1, 1])];
            tensor<string, []> input_253_pad_type_0 = const()[name = tensor<string, []>("input_253_pad_type_0"), val = tensor<string, []>("custom")];
            tensor<int32, [4]> input_253_pad_0 = const()[name = tensor<string, []>("input_253_pad_0"), val = tensor<int32, [4]>([1, 1, 1, 1])];
            tensor<fp16, [51, 128, 3, 3]> model_23_cv4_1_0_conv_weight_to_fp16_palettized = constexpr_lut_to_dense()[indices = tensor<uint8, [58752]>(BLOBFILE(path = tensor<string, []>("@model_path/weights/weight.bin"), offset = tensor<uint64, []>(2261440))), lut = tensor<fp16, [256]>(BLOBFILE(path = tensor<string, []>("@model_path/weights/weight.bin"), offset = tensor<uint64, []>(2320256))), name = tensor<string, []>("model_23_cv4_1_0_conv_weight_to_fp16_palettized"), shape = tensor<uint32, [4]>([51, 128, 3, 3])];
            tensor<fp16, [51]> model_23_cv4_1_0_conv_bias_to_fp16 = const()[name = tensor<string, []>("model_23_cv4_1_0_conv_bias_to_fp16"), val = tensor<fp16, [51]>(BLOBFILE(path = tensor<string, []>("@model_path/weights/weight.bin"), offset = tensor<uint64, []>(2320832)))];
            tensor<fp16, [1, 51, 40, 24]> input_253_cast_fp16 = conv(bias = model_23_cv4_1_0_conv_bias_to_fp16, dilations = var_993, groups = var_931, pad = input_253_pad_0, pad_type = input_253_pad_type_0, strides = var_991, weight = model_23_cv4_1_0_conv_weight_to_fp16_palettized, x = input_207_cast_fp16)[name = tensor<string, []>("input_253_cast_fp16")];
            tensor<fp16, [1, 51, 40, 24]> input_255_cast_fp16 = silu(x = input_253_cast_fp16)[name = tensor<string, []>("input_255_cast_fp16")];
            tensor<int32, [2]> var_1000 = const()[name = tensor<string, []>("op_1000"), val = tensor<int32, [2]>([1, 1])];
            tensor<int32, [2]> var_1002 = const()[name = tensor<string, []>("op_1002"), val = tensor<int32, [2]>([1, 1])];
            tensor<string, []> input_257_pad_type_0 = const()[name = tensor<string, []>("input_257_pad_type_0"), val = tensor<string, []>("custom")];
            tensor<int32, [4]> input_257_pad_0 = const()[name = tensor<string, []>("input_257_pad_0"), val = tensor<int32, [4]>([1, 1, 1, 1])];
            tensor<fp16, [51, 51, 3, 3]> model_23_cv4_1_1_conv_weight_to_fp16_palettized = constexpr_lut_to_dense()[indices = tensor<uint8, [23409]>(BLOBFILE(path = tensor<string, []>("@model_path/weights/weight.bin"), offset = tensor<uint64, []>(2321024))), lut = tensor<fp16, [256]>(BLOBFILE(path = tensor<string, []>("@model_path/weights/weight.bin"), offset = tensor<uint64, []>(2344512))), name = tensor<string, []>("model_23_cv4_1_1_conv_weight_to_fp16_palettized"), shape = tensor<uint32, [4]>([51, 51, 3, 3])];
            tensor<fp16, [51]> model_23_cv4_1_1_conv_bias_to_fp16 = const()[name = tensor<string, []>("model_23_cv4_1_1_conv_bias_to_fp16"), val = tensor<fp16, [51]>(BLOBFILE(path = tensor<string, []>("@model_path/weights/weight.bin"), offset = tensor<uint64, []>(2345088)))];
            tensor<fp16, [1, 51, 40, 24]> input_257_cast_fp16 = conv(bias = model_23_cv4_1_1_conv_bias_to_fp16, dilations = var_1002, groups = var_931, pad = input_257_pad_0, pad_type = input_257_pad_type_0, strides = var_1000, weight = model_23_cv4_1_1_conv_weight_to_fp16_palettized, x = input_255_cast_fp16)[name = tensor<string, []>("input_257_cast_fp16")];
            tensor<fp16, [1, 51, 40, 24]> input_259_cast_fp16 = silu(x = input_257_cast_fp16)[name = tensor<string, []>("input_259_cast_fp16")];
            tensor<int32, [2]> var_1008 = const()[name = tensor<string, []>("op_1008"), val = tensor<int32, [2]>([1, 1])];
            tensor<int32, [2]> var_1010 = const()[name = tensor<string, []>("op_1010"), val = tensor<int32, [2]>([1, 1])];
            tensor<string, []> var_1012_pad_type_0 = const()[name = tensor<string, []>("op_1012_pad_type_0"), val = tensor<string, []>("custom")];
            tensor<int32, [4]> var_1012_pad_0 = const()[name = tensor<string, []>("op_1012_pad_0"), val = tensor<int32, [4]>([0, 0, 0, 0])];
            tensor<fp16, [51, 51, 1, 1]> model_23_cv4_1_2_weight_to_fp16_palettized = constexpr_lut_to_dense()[indices = tensor<uint8, [2601]>(BLOBFILE(path = tensor<string, []>("@model_path/weights/weight.bin"), offset = tensor<uint64, []>(2345280))), lut = tensor<fp16, [256]>(BLOBFILE(path = tensor<string, []>("@model_path/weights/weight.bin"), offset = tensor<uint64, []>(2347968))), name = tensor<string, []>("model_23_cv4_1_2_weight_to_fp16_palettized"), shape = tensor<uint32, [4]>([51, 51, 1, 1])];
            tensor<fp16, [51]> model_23_cv4_1_2_bias_to_fp16 = const()[name = tensor<string, []>("model_23_cv4_1_2_bias_to_fp16"), val = tensor<fp16, [51]>(BLOBFILE(path = tensor<string, []>("@model_path/weights/weight.bin"), offset = tensor<uint64, []>(2348544)))];
            tensor<fp16, [1, 51, 40, 24]> var_1012_cast_fp16 = conv(bias = model_23_cv4_1_2_bias_to_fp16, dilations = var_1010, groups = var_931, pad = var_1012_pad_0, pad_type = var_1012_pad_type_0, strides = var_1008, weight = model_23_cv4_1_2_weight_to_fp16_palettized, x = input_259_cast_fp16)[name = tensor<string, []>("op_1012_cast_fp16")];
            tensor<int32, [3]> var_1013 = const()[name = tensor<string, []>("op_1013"), val = tensor<int32, [3]>([1, 51, -1])];
            tensor<fp16, [1, 51, 960]> var_1014_cast_fp16 = reshape(shape = var_1013, x = var_1012_cast_fp16)[name = tensor<string, []>("op_1014_cast_fp16")];
            tensor<int32, [2]> var_1021 = const()[name = tensor<string, []>("op_1021"), val = tensor<int32, [2]>([1, 1])];
            tensor<int32, [2]> var_1023 = const()[name = tensor<string, []>("op_1023"), val = tensor<int32, [2]>([1, 1])];
            tensor<string, []> input_263_pad_type_0 = const()[name = tensor<string, []>("input_263_pad_type_0"), val = tensor<string, []>("custom")];
            tensor<int32, [4]> input_263_pad_0 = const()[name = tensor<string, []>("input_263_pad_0"), val = tensor<int32, [4]>([1, 1, 1, 1])];
…
model_path/weights/weight.bin"), offset = tensor<uint64, []>(2574336))), name = tensor<string, []>("model_23_cv2_0_2_weight_to_fp16_palettized"), shape = tensor<uint32, [4]>([64, 64, 1, 1])];
            tensor<fp16, [64]> model_23_cv2_0_2_bias_to_fp16 = const()[name = tensor<string, []>("model_23_cv2_0_2_bias_to_fp16"), val = tensor<fp16, [64]>(BLOBFILE(path = tensor<string, []>("@model_path/weights/weight.bin"), offset = tensor<uint64, []>(2574912)))];
            tensor<fp16, [1, 64, 80, 48]> var_1074_cast_fp16 = conv(bias = model_23_cv2_0_2_bias_to_fp16, dilations = var_1072, groups = var_931, pad = var_1074_pad_0, pad_type = var_1074_pad_type_0, strides = var_1070, weight = model_23_cv2_0_2_weight_to_fp16_palettized, x = input_277_cast_fp16)[name = tensor<string, []>("op_1074_cast_fp16")];
            tensor<int32, [2]> var_1083 = const()[name = tensor<string, []>("op_1083"), val = tensor<int32, [2]>([1, 1])];
            tensor<int32, [2]> var_1085 = const()[name = tensor<string, []>("op_1085"), val = tensor<int32, [2]>([1, 1])];
            tensor<string, []> input_279_pad_type_0 = const()[name = tensor<string, []>("input_279_pad_type_0"), val = tensor<string, []>("custom")];
            tensor<int32, [4]> input_279_pad_0 = const()[name = tensor<string, []>("input_279_pad_0"), val = tensor<int32, [4]>([1, 1, 1, 1])];
            tensor<fp16, [64, 1, 3, 3]> model_23_cv3_0_0_0_conv_weight_to_fp16_palettized = constexpr_lut_to_dense()[indices = tensor<uint8, [576]>(BLOBFILE(path = tensor<string, []>("@model_path/weights/weight.bin"), offset = tensor<uint64, []>(2575104))), lut = tensor<fp16, [256]>(BLOBFILE(path = tensor<string, []>("@model_path/weights/weight.bin"), offset = tensor<uint64, []>(2575744))), name = tensor<string, []>("model_23_cv3_0_0_0_conv_weight_to_fp16_palettized"), shape = tensor<uint32, [4]>([64, 1, 3, 3])];
            tensor<fp16, [64]> model_23_cv3_0_0_0_conv_bias_to_fp16 = const()[name = tensor<string, []>("model_23_cv3_0_0_0_conv_bias_to_fp16"), val = tensor<fp16, [64]>(BLOBFILE(path = tensor<string, []>("@model_path/weights/weight.bin"), offset = tensor<uint64, []>(2576320)))];
            tensor<fp16, [1, 64, 80, 48]> input_279_cast_fp16 = conv(bias = model_23_cv3_0_0_0_conv_bias_to_fp16, dilations = var_1085, groups = var_928, pad = input_279_pad_0, pad_type = input_279_pad_type_0, strides = var_1083, weight = model_23_cv3_0_0_0_conv_weight_to_fp16_palettized, x = input_187_cast_fp16)[name = tensor<string, []>("input_279_cast_fp16")];
            tensor<fp16, [1, 64, 80, 48]> input_281_cast_fp16 = silu(x = input_279_cast_fp16)[name = tensor<string, []>("input_281_cast_fp16")];
            tensor<int32, [2]> var_1092 = const()[name = tensor<string, []>("op_1092"), val = tensor<int32, [2]>([1, 1])];
            tensor<int32, [2]> var_1094 = const()[name = tensor<string, []>("op_1094"), val = tensor<int32, [2]>([1, 1])];
            tensor<string, []> input_283_pad_type_0 = const()[name = tensor<string, []>("input_283_pad_type_0"), val = tensor<string, []>("custom")];
            tensor<int32, [4]> input_283_pad_0 = const()[name = tensor<string, []>("input_283_pad_0"), val = tensor<int32, [4]>([0, 0, 0, 0])];
            tensor<fp16, [64, 64, 1, 1]> model_23_cv3_0_0_1_conv_weight_to_fp16_palettized = constexpr_lut_to_dense()[indices = tensor<uint8, [4096]>(BLOBFILE(path = tensor<string, []>("@model_path/weights/weight.bin"), offset = tensor<uint64, []>(2576512))), lut = tensor<fp16, [256]>(BLOBFILE(path = tensor<string, []>("@model_path/weights/weight.bin"), offset = tensor<uint64, []>(2580672))), name = tensor<string, []>("model_23_cv3_0_0_1_conv_weight_to_fp16_palettized"), shape = tensor<uint32, [4]>([64, 64, 1, 1])];
            tensor<fp16, [64]> model_23_cv3_0_0_1_conv_bias_to_fp16 = const()[name = tensor<string, []>("model_23_cv3_0_0_1_conv_bias_to_fp16"), val = tensor<fp16, [64]>(BLOBFILE(path = tensor<string, []>("@model_path/weights/weight.bin"), offset = tensor<uint64, []>(2581248)))];
            tensor<fp16, [1, 64, 80, 48]> input_283_cast_fp16 = conv(bias = model_23_cv3_0_0_1_conv_bias_to_fp16, dilations = var_1094, groups = var_931, pad = input_283_pad_0, pad_type = input_283_pad_type_0, strides = var_1092, weight = model_23_cv3_0_0_1_conv_weight_to_fp16_palettized, x = input_281_cast_fp16)[name = tensor<string, []>("input_283_cast_fp16")];
            tensor<fp16, [1, 64, 80, 48]> input_285_cast_fp16 = silu(x = input_283_cast_fp16)[name = tensor<string, []>("input_285_cast_fp16")];
            tensor<int32, [2]> var_1103 = const()[name = tensor<string, []>("op_1103"), val = tensor<int32, [2]>([1, 1])];
            tensor<int32, [2]> var_1105 = const()[name = tensor<string, []>("op_1105"), val = tensor<int32, [2]>([1, 1])];
            tensor<string, []> input_287_pad_type_0 = const()[name = tensor<string, []>("input_287_pad_type_0"), val = tensor<string, []>("custom")];
            tensor<int32, [4]> input_287_pad_0 = const()[name = tensor<string, []>("input_287_pad_0"), val = tensor<int32, [4]>([1, 1, 1, 1])];
            tensor<fp16, [64, 1, 3, 3]> model_23_cv3_0_1_0_conv_weight_to_fp16_palettized = constexpr_lut_to_dense()[indices = tensor<uint8, [576]>(BLOBFILE(path = tensor<string, []>("@model_path/weights/weight.bin"), offset = tensor<uint64, []>(2581440))), lut = tensor<fp16, [256]>(BLOBFILE(path = tensor<string, []>("@model_path/weights/weight.bin"), offset = tensor<uint64, []>(2582080))), name = tensor<string, []>("model_23_cv3_0_1_0_conv_weight_to_fp16_palettized"), shape = tensor<uint32, [4]>([64, 1, 3, 3])];
            tensor<fp16, [64]> model_23_cv3_0_1_0_conv_bias_to_fp16 = const()[name = tensor<string, []>("model_23_cv3_0_1_0_conv_bias_to_fp16"), val = tensor<fp16, [64]>(BLOBFILE(path = tensor<string, []>("@model_path/weights/weight.bin"), offset = tensor<uint64, []>(2582656)))];
            tensor<fp16, [1, 64, 80, 48]> input_287_cast_fp16 = conv(bias = model_23_cv3_0_1_0_conv_bias_to_fp16, dilations = var_1105, groups = var_928, pad = input_287_pad_0, pad_type = input_287_pad_type_0, strides = var_1103, weight = model_23_cv3_0_1_0_conv_weight_to_fp16_palettized, x = input_285_cast_fp16)[name = tensor<string, []>("input_287_cast_fp16")];
            tensor<fp16, [1, 64, 80, 48]> input_289_cast_fp16 = silu(x = input_287_cast_fp16)[name = tensor<string, []>("input_289_cast_fp16")];
            tensor<int32, [2]> var_1112 = const()[name = tensor<string, []>("op_1112"), val = tensor<int32, [2]>([1, 1])];
            tensor<int32, [2]> var_1114 = const()[name = tensor<string, []>("op_1114"), val = tensor<int32, [2]>([1, 1])];
            tensor<string, []> input_291_pad_type_0 = const()[name = tensor<string, []>("input_291_pad_type_0"), val = tensor<string, []>("custom")];
            tensor<int32, [4]> input_291_pad_0 = const()[name = tensor<string, []>("input_291_pad_0"), val = tensor<int32, [4]>([0, 0, 0, 0])];
            tensor<fp16, [64, 64, 1, 1]> model_23_cv3_0_1_1_conv_weight_to_fp16_palettized = constexpr_lut_to_dense()[indices = tensor<uint8, [4096]>(BLOBFILE(path = tensor<string, []>("@model_path/weights/weight.bin"), offset = tensor<uint64, []>(2582848))), lut = tensor<fp16, [256]>(BLOBFILE(path = tensor<string, []>("@model_path/weights/weight.bin"), offset = tensor<uint64, []>(2587008))), name = tensor<string, []>("model_23_cv3_0_1_1_conv_weight_to_fp16_palettized"), shape = tensor<uint32, [4]>([64, 64, 1, 1])];
            tensor<fp16, [64]> model_23_cv3_0_1_1_conv_bias_to_fp16 = const()[name = tensor<string, []>("model_23_cv3_0_1_1_conv_bias_to_fp16"), val = tensor<fp16, [64]>(BLOBFILE(path = tensor<string, []>("@model_path/weights/weight.bin"), offset = tensor<uint64, []>(2587584)))];
            tensor<fp16, [1, 64, 80, 48]> input_291_cast_fp16 = conv(bias = model_23_cv3_0_1_1_conv_bias_to_fp16, dilations = var_1114, groups = var_931, pad = input_291_pad_0, pad_type = input_291_pad_type_0, strides = var_1112, weight = model_23_cv3_0_1_1_conv_weight_to_fp16_palettized, x = input_289_cast_fp16)[name = tensor<string, []>("input_291_cast_fp16")];
            tensor<fp16, [1, 64, 80, 48]> input_293_cast_fp16 = silu(x = input_291_cast_fp16)[name = tensor<string, []>("input_293_cast_fp16")];
            tensor<int32, [2]> var_1120 = const()[name = tensor<string, []>("op_1120"), val = tensor<int32, [2]>([1, 1])];
            tensor<int32, [2]> var_1122 = const()[name = tensor<string, []>("op_1122"), val = tensor<int32, [2]>([1, 1])];
            tensor<string, []> var_1124_pad_type_0 = const()[name = tensor<string, []>("op_1124_pad_type_0"), val = tensor<string, []>("custom")];
            tensor<int32, [4]> var_1124_pad_0 = const()[name = tensor<string, []>("op_1124_pad_0"), val = tensor<int32, [4]>([0, 0, 0, 0])];
            tensor<fp16, [1, 64, 1, 1]> model_23_cv3_0_2_weight_to_fp16 = const()[name = tensor<string, []>("model_23_cv3_0_2_weight_to_fp16"), val = tensor<fp16, [1, 64, 1, 1]>(BLOBFILE(path = tensor<string, []>("@model_path/weights/weight.bin"), offset = tensor<uint64, []>(2587776)))];
            tensor<fp16, [1]> model_23_cv3_0_2_bias_to_fp16 = const()[name = tensor<string, []>("model_23_cv3_0_2_bias_to_fp16"), val = tensor<fp16, [1]>([-0x1.024p+3])];
            tensor<fp16, [1, 1, 80, 48]> var_1124_cast_fp16 = conv(bias = model_23_cv3_0_2_bias_to_fp16, dilations = var_1122, groups = var_931, pad = var_1124_pad_0, pad_type = var_1124_pad_type_0, strides = var_1120, weight = model_23_cv3_0_2_weight_to_fp16, x = input_293_cast_fp16)[name = tensor<string, []>("op_1124_cast_fp16")];
            tensor<bool, []> xi_1_interleave_0 = const()[name = tensor<string, []>("xi_1_interleave_0"), val = tensor<bool, []>(false)];
            tensor<fp16, [1, 65, 80, 48]> xi_1_cast_fp16 = concat(axis = var_931, interleave = xi_1_interleave_0, values = (var_1074_cast_fp16, var_1124_cast_fp16))[name = tensor<string, []>("xi_1_cast_fp16")];
            tensor<int32, [2]> var_1133 = const()[name = tensor<string, []>("op_1133"), val = tensor<int32, [2]>([1, 1])];
            tensor<int32, [2]> var_1135 = const()[name = tensor<string, []>("op_1135"), val = tensor<int32, [2]>([1, 1])];
            tensor<string, []> input_295_pad_type_0 = const()[name = tensor<string, []>("input_295_pad_type_0"), val = tensor<string, []>("custom")];
            tensor<int32, [4]> input_295_pad_0 = const()[name = tensor<string, []>("input_295_pad_0"), val = tensor<int32, [4]>([1, 1, 1, 1])];
            tensor<fp16, [64, 128, 3, 3]> model_23_cv2_1_0_conv_weight_to_fp16_palettized = constexpr_lut_to_dense()[indices = tensor<uint8, [73728]>(BLOBFILE(path = tensor<string, []>("@model_path/weights/weight.bin"), offset = tensor<uint64, []>(2587968))), lut = tensor<fp16, [256]>(BLOBFILE(path = tensor<string, []>("@model_path/weights/weight.bin"), offset = tensor<uint64, []>(2661760))), name = tensor<string, []>("model_23_cv2_1_0_conv_weight_to_fp16_palettized"), shape = tensor<uint32, [4]>([64, 128, 3, 3])];
            tensor<fp16, [64]> model_23_cv2_1_0_conv_bias_to_fp16 = const()[name = tensor<string, []>("model_23_cv2_1_0_conv_bias_to_fp16"), val = tensor<fp16, [64]>(BLOBFILE(path = tensor<string, []>("@model_path/weights/weight.bin"), offset = tensor<uint64, []>(2662336)))];
            tensor<fp16, [1, 64, 40, 24]> input_295_cast_fp16 = conv(bias = model_23_cv2_1_0_conv_bias_to_fp16, dilations = var_1135, groups = var_931, pad = input_295_pad_0, pad_type = input_295_pad_type_0, strides = var_1133, weight = model_23_cv2_1_0_conv_weight_to_fp16_palettized, x = input_207_cast_fp16)[name = tensor<string, []>("input_295_cast_fp16")];
            tensor<fp16, [1, 64, 40, 24]> input_297_cast_fp16 = silu(x = input_295_cast_fp16)[name = tensor<string, []>("input_297_cast_fp16")];
            tensor<int32, [2]> var_1142 = const()[name = tensor<string, []>("op_1142"), val = tensor<int32, [2]>([1, 1])];
            tensor<int32, [2]> var_1144 = const()[name = tensor<string, []>("op_1144"), val = tensor<int32, [2]>([1, 1])];
            tensor<string, []> input_299_pad_type_0 = const()[name = tensor<string, []>("input_299_pad_type_0"), val = tensor<string, []>("custom")];
            tensor<int32, [4]> input_299_pad_0 = const()[name = tensor<string, []>("input_299_pad_0"), val = tensor<int32, [4]>([1, 1, 1, 1])];
            tensor<fp16, [64, 64, 3, 3]> model_23_cv2_1_1_conv_weight_to_fp16_palettized = constexpr_lut_to_dense()[indices = tensor<uint8, [36864]>(BLOBFILE(path = tensor<string, []>("@model_path/weights/weight.bin"), offset = tensor<uint64, []>(2662528))), lut = tensor<fp16, [256]>(BLOBFILE(path = tensor<string, []>("@model_path/weights/weight.bin"), offset = tensor<uint64, []>(2699456))), name = tensor<string, []>("model_23_cv2_1_1_conv_weight_to_fp16_palettized"), shape = tensor<uint32, [4]>([64, 64, 3, 3])];
            tensor<fp16, [64]> model_23_cv2_1_1_conv_bias_to_fp16 = const()[name = tensor<string, []>("model_23_cv2_1_1_conv_bias_to_fp16"), val = tensor<fp16, [64]>(BLOBFILE(path = tensor<string, []>("@model_path/weights/weight.bin"), offset = tensor<uint64, []>(2700032)))];
            tensor<fp16, [1, 64, 40, 24]> input_299_cast_fp16 = conv(bias = model_23_cv2_1_1_conv_bias_to_fp16, dilations = var_1144, groups = var_931, pad = input_299_pad_0, pad_type = input_299_pad_type_0, strides = var_1142, weight = model_23_cv2_1_1_conv_weight_to_fp16_palettized, x = input_297_cast_fp16)[name = tensor<string, []>("input_299_cast_fp16")];
            tensor<fp16, [1, 64, 40, 24]> input_301_cast_fp16 = silu(x = input_299_cast_fp16)[name = tensor<string, []>("input_301_cast_fp16")];
            tensor<int32, [2]> var_1150 = const()[name = tensor<string, []>("op_1150"), val = tensor<int32, [2]>([1, 1])];
            tensor<int32, [2]> var_1152 = const()[name = tensor<string, []>("op_1152"), val = tensor<int32, [2]>([1, 1])];
            tensor<string, []> var_1154_pad_type_0 = const()[name = tensor<string, []>("op_1154_pad_type_0"), val = tensor<string, []>("custom")];
            tensor<int32, [4]> var_1154_pad_0 = const()[name = tensor<string, []>("op_1154_pad_0"), val = tensor<int32, [4]>([0, 0, 0, 0])];
            tensor<fp16, [64, 64, 1, 1]> model_23_cv2_1_2_weight_to_fp16_palettized = constexpr_lut_to_dense()[indices = tensor<uint8, [4096]>(BLOBFILE(path = tensor<string, []>("@model_path/weights/weight.bin"), offset = tensor<uint64, []>(2700224))), lut = tensor<fp16, [256]>(BLOBFILE(path = tensor<string, []>("@model_path/weights/weight.bin"), offset = tensor<uint64, []>(2704384))), name = tensor<string, []>("model_23_cv2_1_2_weight_to_fp16_palettized"), shape = tensor<uint32, [4]>([64, 64, 1, 1])];
            tensor<fp16, [64]> model_23_cv2_1_2_bias_to_fp16 = const()[name = tensor<string, []>("model_23_cv2_1_2_bias_to_fp16"), val = tensor<fp16, [64]>(BLOBFILE(path = tensor<string, []>("@model_path/weights/weight.bin"), offset = tensor<uint64, []>(2704960)))];
            tensor<fp16, [1, 64, 40, 24]> var_1154_cast_fp16 = conv(bias = model_23_cv2_1_2_bias_to_fp16, dilations = var_1152, groups = var_931, pad = var_1154_pad_0, pad_type = var_1154_pad_type_0, strides = var_1150, weight = model_23_cv2_1_2_weight_to_fp16_palettized, x = input_301_cast_fp16)[name = tensor<string, []>("op_1154_cast_fp16")];
            tensor<int32, [2]> var_1163 = const()[name = tensor<string, []>("op_1163"), val = tensor<int32, [2]>([1, 1])];
            tensor<int32, [2]> var_1165 = const()[name = tensor<string, []>("op_1165"), val = tensor<int32, [2]>([1, 1])];
            tensor<string, []> input_303_pad_type_0 = const()[name = tensor<string, []>("input_303_pad_type_0"), val = tensor<string, []>("custom")];
            tensor<int32, [4]> input_303_pad_0 = const()[name = tensor<string, []>("input_303_pad_0"), val = tensor<int32, [4]>([1, 1, 1, 1])];
            tensor<fp16, [128, 1, 3, 3]> model_23_cv3_1_0_0_conv_weight_to_fp16_palettized = constexpr_lut_to_dense()[indices = tensor<uint8, [1152]>(BLOBFILE(path = tensor<string, []>("@model_path/weights/weight.bin"), offset = tensor<uint64, []>(2705152))), lut = tensor<fp16, [256]>(BLOBFILE(path = tensor<string, []>("@model_path/weights/weight.bin"), offset = tensor<uint64, []>(2706368))), name = tensor<string, []>("model_23_cv3_1_0_0_conv_weight_to_fp16_palettized"), shape = tensor<uint32, [4]>([128, 1, 3, 3])];
            tensor<fp16, [128]> model_23_cv3_1_0_0_conv_bias_to_fp16 = const()[name = tensor<string, []>("model_23_cv3_1_0_0_conv_bias_to_fp16"), val = tensor<fp16, [128]>(BLOBFILE(path = tensor<string, []>("@model_path/weights/weight.bin"), offset = tensor<uint64, []>(2706944)))];
            tensor<fp16, [1, 128, 40, 24]> input_303_cast_fp16 = conv(bias = model_23_cv3_1_0_0_conv_bias_to_fp16, dilations = var_1165, groups = var_927, pad = input_303_pad_0, pad_type = input_303_pad_type_0, strides = var_1163, weight = model_23_cv3_1_0_0_conv_weight_to_fp16_palettized, x = input_207_cast_fp16)[name = tensor<string, []>("input_303_cast_fp16")];
            tensor<fp16, [1, 128, 40, 24]> input_305_cast_fp16 = silu(x = input_303_cast_fp16)[name = tensor<string, []>("input_305_cast_fp16")];
            tensor<int32, [2]> var_1172 = const()[name = tensor<string, []>("op_1172"), val = tensor<int32, [2]>([1, 1])];
            tensor<int32, [2]> var_1174 = const()[name = tensor<string, []>("op_1174"), val = tensor<int32, [2]>([1, 1])];
            tensor<string, []> input_307_pad_type_0 = const()[name = tensor<string, []>("input_307_pad_type_0"), val = tensor<string, []>("custom")];
            tensor<int32, [4]> input_307_pad_0 = const()[name = tensor<string, []>("input_307_pad_0"), val = tensor<int32, [4]>([0, 0, 0, 0])];
            tensor<fp16, [64, 128, 1, 1]> model_23_cv3_1_0_1_conv_weight_to_fp16_palettized = constexpr_lut_to_dense()[indices = tensor<uint8, [8192]>(BLOBFILE(path = tensor<string, []>("@model_path/weights/weight.bin"), offset = tensor<uint64, []>(2707264))), lut = tensor<fp16, [256]>(BLOBFILE(path = tensor<string, []>("@model_path/weights/weight.bin"), offset = tensor<uint64, []>(2715520))), name = tensor<string, []>("model_23_cv3_1_0_1_conv_weight_to_fp16_palettized"), shape = tensor<uint32, [4]>([64, 128, 1, 1])];
            tensor<fp16, [64]> model_23_cv3_1_0_1_conv_bias_to_fp16 = const()[name = tensor<string, []>("model_23_cv3_1_0_1_conv_bias_to_fp16"), val = tensor<fp16, [64]>(BLOBFILE(path = tensor<string, []>("@model_path/weights/weight.bin"), offset = tensor<uint64, []>(2716096)))];
            tensor<fp16, [1, 64, 40, 24]> input_307_cast_fp16 = conv(bias = model_23_cv3_1_0_1_conv_bias_to_fp16, dilations = var_1174, groups = var_931, pad = input_307_pad_0, pad_type = input_307_pad_type_0, strides = var_1172, weight = model_23_cv3_1_0_1_conv_weight_to_fp16_palettized, x = input_305_cast_fp16)[name = tensor<string, []>("input_307_cast_fp16")];
            tensor<fp16, [1, 64, 40, 24]> input_309_cast_fp16 = silu(x = input_307_cast_fp16)[name = tensor<string, []>("input_309_cast_fp16")];
            tensor<int32, [2]> var_1183 = const()[name = tensor<string, []>("op_1183"), val = tensor<int32, [2]>([1, 1])];
            tensor<int32, [2]> var_1185 = const()[name = tensor<string, []>("op_1185"), val = tensor<int32, [2]>([1, 1])];
            tensor<string, []> input_311_pad_type_0 = const()[name = tensor<string, []>("input_311_pad_type_0"), val = tensor<string, []>("custom")];
            tensor<int32, [4]> input_311_pad_0 = const()[name = tensor<string, []>("input_311_pad_0"), val = tensor<int32, [4]>([1, 1, 1, 1])];
            tensor<fp16, [64, 1, 3, 3]> model_23_cv3_1_1_0_conv_weight_to_fp16_palettized = constexpr_lut_to_dense()[indices = tensor<uint8, [576]>(BLOBFILE(path = tensor<string, []>("@model_path/weights/weight.bin"), offset = tensor<uint64, []>(2716288))), lut = tensor<fp16, [256]>(BLOBFILE(path = tensor<string, []>("@model_path/weights/weight.bin"), offset = tensor<uint64, []>(2716928))), name = tensor<string, []>("model_23_cv3_1_1_0_conv_weight_to_fp16_palettized"), shape = tensor<uint32, [4]>([64, 1, 3, 3])];
            tensor<fp16, [64]> model_23_cv3_1_1_0_conv_bias_to_fp16 = const()[name = tensor<string, []>("model_23_cv3_1_1_0_conv_bias_to_fp16"), val = tensor<fp16, [64]>(BLOBFILE(path = tensor<string, []>("@model_path/weights/weight.bin"), offset = tensor<uint64, []>(2717504)))];
            tensor<fp16, [1, 64, 40, 24]> input_311_cast_fp16 = conv(bias = model_23_cv3_1_1_0_conv_bias_to_fp16, dilations = var_1185, groups = var_928, pad = input_311_pad_0, pad_type = input_311_pad_type_0, strides = var_1183, weight = model_23_cv3_1_1_0_conv_weight_to_fp16_palettized, x = input_309_cast_fp16)[name = tensor<string, []>("input_311_cast_fp16")];
            tensor<fp16, [1, 64, 40, 24]> input_313_cast_fp16 = silu(x = input_311_cast_fp16)[name = tensor<string, []>("input_313_cast_fp16")];
            tensor<int32, [2]> var_1192 = const()[name = tensor<string, []>("op_1192"), val = tensor<int32, [2]>([1, 1])];
            tensor<int32, [2]> var_1194 = const()[name = tensor<string, []>("op_1194"), val = tensor<int32, [2]>([1, 1])];
            tensor<string, []> input_315_pad_type_0 = const()[name = tensor<string, []>("input_315_pad_type_0"), val = tensor<string, []>("custom")];
            tensor<int32, [4]> input_315_pad_0 = const()[name = tensor<string, []>("input_315_pad_0"), val = tensor<int32, [4]>([0, 0, 0, 0])];
            tensor<fp16, [64, 64, 1, 1]> model_23_cv3_1_1_1_conv_weight_to_fp16_palettized = constexpr_lut_to_dense()[indices = tensor<uint8, [4096]>(BLOBFILE(path = tensor<string, []>("@model_path/weights/weight.bin"), offset = tensor<uint64, []>(2717696))), lut = tensor<fp16, [256]>(BLOBFILE(path = tensor<string, []>("@model_path/weights/weight.bin"), offset = tensor<uint64, []>(2721856))), name = tensor<string, []>("model_23_cv3_1_1_1_conv_weight_to_fp16_palettized"), shape = tensor<uint32, [4]>([64, 64, 1, 1])];
            tensor<fp16, [64]> model_23_cv3_1_1_1_conv_bias_to_fp16 = const()[name = tensor<string, []>("model_23_cv3_1_1_1_conv_bias_to_fp16"), val = tensor<fp16, [64]>(BLOBFILE(path = tensor<string, []>("@model_path/weights/weight.bin"), offset = tensor<uint64, []>(2722432)))];
            tensor<fp16, [1, 64, 40, 24]> input_315_cast_fp16 = conv(bias = model_23_cv3_1_1_1_conv_bias_to_fp16, dilations = var_1194, groups = var_931, pad = input_315_pad_0, pad_type = input_315_pad_type_0, strides = var_1192, weight = model_23_cv3_1_1_1_conv_weight_to_fp16_palettized, x = input_313_cast_fp16)[name = tensor<string, []>("input_315_cast_fp16")];
            tensor<fp16, [1, 64, 40, 24]> input_317_cast_fp16 = silu(x = input_315_cast_fp16)[name = tensor<string, []>("input_317_cast_fp16")];
            tensor<int32, [2]> var_1200 = const()[name = tensor<string, []>("op_1200"), val = tensor<int32, [2]>([1, 1])];
            tensor<int32, [2]> var_1202 = const()[name = tensor<string, []>("op_1202"), val = tensor<int32, [2]>([1, 1])];
            tensor<string, []> var_1204_pad_type_0 = const()[name = tensor<string, []>("op_1204_pad_type_0"), val = tensor<string, []>("custom")];
            tensor<int32, [4]> var_1204_pad_0 = const()[name = tensor<string, []>("op_1204_pad_0"), val = tensor<int32, [4]>([0, 0, 0, 0])];
            tensor<fp16, [1, 64, 1, 1]> model_23_cv3_1_2_weight_to_fp16 = const()[name = tensor<string, []>("model_23_cv3_1_2_weight_to_fp16"), val = tensor<fp16, [1, 64, 1, 1]>(BLOBFILE(path = tensor<string, []>("@model_path/weights/weight.bin"), offset = tensor<uint64, []>(2722624)))];
            tensor<fp16, [1]> model_23_cv3_1_2_bias_to_fp16 = const()[name = tensor<string, []>("model_23_cv3_1_2_bias_to_fp16"), val = tensor<fp16, [1]>([-0x1.8b8p+2])];
            tensor<fp16, [1, 1, 40, 24]> var_1204_cast_fp16 = conv(bias = model_23_cv3_1_2_bias_to_fp16, dilations = var_1202, groups = var_931, pad = var_1204_pad_0, pad_type = var_1204_pad_type_0, strides = var_1200, weight = model_23_cv3_1_2_weight_to_fp16, x = input_317_cast_fp16)[name = tensor<string, []>("op_1204_cast_fp16")];
            tensor<bool, []> xi_3_interleave_0 = const()[name = tensor<string, []>("xi_3_interleave_0"), val = tensor<bool, []>(false)];
            tensor<fp16, [1, 65, 40, 24]> xi_3_cast_fp16 = concat(axis = var_931, interleave = xi_3_interleave_0, values = (var_1154_cast_fp16, var_1204_cast_fp16))[name = tensor<string, []>("xi_3_cast_fp16")];
            tensor<int32, [2]> var_1213 = const()[name = tensor<string, []>("op_1213"), val = tensor<int32, [2]>([1, 1])];
            tensor<int32, [2]> var_1215 = const()[name = tensor<string, []>("op_1215"), val = tensor<int32, [2]>([1, 1])];
            tensor<string, []> input_319_pad_type_0 = const()[name = tensor<string, []>("input_319_pad_type_0"), val = tensor<string, []>("custom")];
            tensor<int32, [4]> input_319_pad_0 = const()[name = tensor<string, []>("input_319_pad_0"), val = tensor<int32, [4]>([1, 1, 1, 1])];
            tensor<fp16, [64, 256, 3, 3]> model_23_cv2_2_0_conv_weight_to_fp16_palettized = constexpr_lut_to_dense()[indices = tensor<uint8, [147456]>(BLOBFILE(path = tensor<string, []>("@model_path/weights/weight.bin"), offset = tensor<uint64, []>(2722816))), lut = tensor<fp16, [256]>(BLOBFILE(path = tensor<string, []>("@model_path/weights/weight.bin"), offset = tensor<uint64, []>(2870336))), name = tensor<string, []>("model_23_cv2_2_0_conv_weight_to_fp16_palettized"), shape = tensor<uint32, [4]>([64, 256, 3, 3])];
            tensor<fp16, [64]> model_23_cv2_2_0_conv_bias_to_fp16 = const()[name = tensor<string, []>("model_23_cv2_2_0_conv_bias_to_fp16"), val = tensor<fp16, [64]>(BLOBFILE(path = tensor<string, []>("@model_path/weights/weight.bin"), offset = tensor<uint64, []>(2870912)))];
            tensor<fp16, [1, 64, 20, 12]> input_319_cast_fp16 = conv(bias = model_23_cv2_2_0_conv_bias_to_fp16, dilations = var_1215, groups = var_931, pad = input_319_pad_0, pad_type = input_319_pad_type_0, strides = var_1213, weight = model_23_cv2_2_0_conv_weight_to_fp16_palettized, x = input_261_cast_fp16)[name = tensor<string, []>("input_319_cast_fp16")];
            tensor<fp16, [1, 64, 20, 12]> input_321_cast_fp16 = silu(x = input_319_cast_fp16)[name = tensor<string, []>("input_321_cast_fp16")];
            tensor<int32, [2]> var_1222 = const()[name = tensor<string, []>("op_1222"), val = tensor<int32, [2]>([1, 1])];
            tensor<int32, [2]> var_1224 = const()[name = tensor<string, []>("op_1224"), val = tensor<int32, [2]>([1, 1])];
            tensor<string, []> input_323_pad_type_0 = const()[name = tensor<string, []>("input_323_pad_type_0"), val = tensor<string, []>("custom")];
            tensor<int32, [4]> input_323_pad_0 = const()[name = tensor<string, []>("input_323_pad_0"), val = tensor<int32, [4]>([1, 1, 1, 1])];
            tensor<fp16, [64, 64, 3, 3]> model_23_cv2_2_1_conv_weight_to_fp16_palettized = constexpr_lut_to_dense()[indices = tensor<uint8, [36864]>(BLOBFILE(path = tensor<string, []>("@model_path/weights/weight.bin"), offset = tensor<uint64, []>(2871104))), lut = tensor<fp16, [256]>(BLOBFILE(path = tensor<string, []>("@model_path/weights/weight.bin"), offset = tensor<uint64, []>(2908032))), name = tensor<string, []>("model_23_cv2_2_1_conv_weight_to_fp16_palettized"), shape = tensor<uint32, [4]>([64, 64, 3, 3])];
            tensor<fp16, [64]> model_23_cv2_2_1_conv_bias_to_fp16 = const()[name = tensor<string, []>("model_23_cv2_2_1_conv_bias_to_fp16"), val = tensor<fp16, [64]>(BLOBFILE(path = tensor<string, []>("@model_path/weights/weight.bin"), offset = tensor<uint64, []>(2908608)))];
            tensor<fp16, [1, 64, 20, 12]> input_323_cast_fp16 = conv(bias = model_23_cv2_2_1_conv_bias_to_fp16, dilations = var_1224, groups = var_931, pad = input_323_pad_0, pad_type = input_323_pad_type_0, strides = var_1222, weight = model_23_cv2_2_1_conv_weight_to_fp16_palettized, x = input_321_cast_fp16)[name = tensor<string, []>("input_323_cast_fp16")];
            tensor<fp16, [1, 64, 20, 12]> input_325_cast_fp16 = silu(x = input_323_cast_fp16)[name = tensor<string, []>("input_325_cast_fp16")];
            tensor<int32, [2]> var_1230 = const()[name = tensor<string, []>("op_1230"), val = tensor<int32, [2]>([1, 1])];
            tensor<int32, [2]> var_1232 = const()[name = tensor<string, []>("op_1232"), val = tensor<int32, [2]>([1, 1])];
            tensor<string, []> var_1234_pad_type_0 = const()[name = tensor<string, []>("op_1234_pad_type_0"), val = tensor<string, []>("custom")];
            tensor<int32, [4]> var_1234_pad_0 = const()[name = tensor<string, []>("op_1234_pad_0"), val = tensor<int32, [4]>([0, 0, 0, 0])];
            tensor<fp16, [64, 64, 1, 1]> model_23_cv2_2_2_weight_to_fp16_palettized = constexpr_lut_to_dense()[indices = tensor<uint8, [4096]>(BLOBFILE(path = tensor<string, []>("@model_path/weights/weight.bin"), offset = tensor<uint64, []>(2908800))), lut = tensor<fp16, [256]>(BLOBFILE(path = tensor<string, []>("@model_path/weights/weight.bin"), offset = tensor<uint64, []>(2912960))), name = tensor<string, []>("model_23_cv2_2_2_weight_to_fp16_palettized"), shape = tensor<uint32, [4]>([64, 64, 1, 1])];
            tensor<fp16, [64]> model_23_cv2_2_2_bias_to_fp16 = const()[name = tensor<string, []>("model_23_cv2_2_2_bias_to_fp16"), val = tensor<fp16, [64]>(BLOBFILE(path = tensor<string, []>("@model_path/weights/weight.bin"), offset = tensor<uint64, []>(2913536)))];
            tensor<fp16, [1, 64, 20, 12]> var_1234_cast_fp16 = conv(bias = model_23_cv2_2_2_bias_to_fp16, dilations = var_1232, groups = var_931, pad = var_1234_pad_0, pad_type = var_1234_pad_type_0, strides = var_1230, weight = model_23_cv2_2_2_weight_to_fp16_palettized, x = input_325_cast_fp16)[name = tensor<string, []>("op_1234_cast_fp16")];
            tensor<int32, [2]> var_1243 = const()[name = tensor<string, []>("op_1243"), val = tensor<int32, [2]>([1, 1])];
            tensor<int32, [2]> var_1245 = const()[name = tensor<string, []>("op_1245"), val = tensor<int32, [2]>([1, 1])];
            tensor<string, []> input_327_pad_type_0 = const()[name = tensor<string, []>("input_327_pad_type_0"), val = tensor<string, []>("custom")];
            tensor<int32, [4]> input_327_pad_0 = const()[name = tensor<string, []>("input_327_pad_0"), val = tensor<int32, [4]>([1, 1, 1, 1])];
            tensor<fp16, [256, 1, 3, 3]> model_23_cv3_2_0_0_conv_weight_to_fp16_palettized = constexpr_lut_to_dense()[indices = tensor<uint8, [2304]>(BLOBFILE(path = tensor<string, []>("@model_path/weights/weight.bin"), offset = tensor<uint64, []>(2913728))), lut = tensor<fp16, [256]>(BLOBFILE(path = tensor<string, []>("@model_path/weights/weight.bin"), offset = tensor<uint64, []>(2916096))), name = tensor<string, []>("model_23_cv3_2_0_0_conv_weight_to_fp16_palettized"), shape = tensor<uint32, [4]>([256, 1, 3, 3])];
            tensor<fp16, [256]> model_23_cv3_2_0_0_conv_bias_to_fp16 = const()[name = tensor<string, []>("model_23_cv3_2_0_0_conv_bias_to_fp16"), val = tensor<fp16, [256]>(BLOBFILE(path = tensor<string, []>("@model_path/weights/weight.bin"), offset = tensor<uint64, []>(2916672)))];
            tensor<fp16, [1, 256, 20, 12]> input_327_cast_fp16 = conv(bias = model_23_cv3_2_0_0_conv_bias_to_fp16, dilations = var_1245, groups = var_926, pad = input_327_pad_0, pad_type = input_327_pad_type_0, strides = var_1243, weight = model_23_cv3_2_0_0_conv_weight_to_fp16_palettized, x = input_261_cast_fp16)[name = tensor<string, []>("input_327_cast_fp16")];
            tensor<fp16, [1, 256, 20, 12]> input_329_cast_fp16 = silu(x = input_327_cast_fp16)[name = tensor<string, []>("input_329_cast_fp16")];
            tensor<int32, [2]> var_1252 = const()[name = tensor<string, []>("op_1252"), val = tensor<int32, [2]>([1, 1])];
            tensor<int32, [2]> var_1254 = const()[name = tensor<string, []>("op_1254"), val = tensor<int32, [2]>([1, 1])];
            tensor<string, []> input_331_pad_type_0 = const()[name = tensor<string, []>("input_331_pad_type_0"), val = tensor<string, []>("custom")];
            tensor<int32, [4]> input_331_pad_0 = const()[name = tensor<string, []>("input_331_pad_0"), val = tensor<int32, [4]>([0, 0, 0, 0])];
            tensor<fp16, [64, 256, 1, 1]> model_23_cv3_2_0_1_conv_weight_to_fp16_palettized = constexpr_lut_to_dense()[indices = tensor<uint8, [16384]>(BLOBFILE(path = tensor<string, []>("@model_path/weights/weight.bin"), offset = tensor<uint64, []>(2917248))), lut = tensor<fp16, [256]>(BLOBFILE(path = tensor<string, []>("@model_path/weights/weight.bin"), offset = tensor<uint64, []>(2933696))), name = tensor<string, []>("model_23_cv3_2_0_1_conv_weight_to_fp16_palettized"), shape = tensor<uint32, [4]>([64, 256, 1, 1])];
            tensor<fp16, [64]> model_23_cv3_2_0_1_conv_bias_to_fp16 = const()[name = tensor<string, []>("model_23_cv3_2_0_1_conv_bias_to_fp16"), val = tensor<fp16, [64]>(BLOBFILE(path = tensor<string, []>("@model_path/weights/weight.bin"), offset = tensor<uint64, []>(2934272)))];
            tensor<fp16, [1, 64, 20, 12]> input_331_cast_fp16 = conv(bias = model_23_cv3_2_0_1_conv_bias_to_fp16, dilations = var_1254, groups = var_931, pad = input_331_pad_0, pad_type = input_331_pad_type_0, strides = var_1252, weight = model_23_cv3_2_0_1_conv_weight_to_fp16_palettized, x = input_329_cast_fp16)[name = tensor<string, []>("input_331_cast_fp16")];
            tensor<fp16, [1, 64, 20, 12]> input_333_cast_fp16 = silu(x = input_331_cast_fp16)[name = tensor<string, []>("input_333_cast_fp16")];
            tensor<int32, [2]> var_1263 = const()[name = tensor<string, []>("op_1263"), val = tensor<int32, [2]>([1, 1])];
            tensor<int32, [2]> var_1265 = const()[name = tensor<string, []>("op_1265"), val = tensor<int32, [2]>([1, 1])];
            tensor<string, []> input_335_pad_type_0 = const()[name = tensor<string, []>("input_335_pad_type_0"), val = tensor<string, []>("custom")];
            tensor<int32, [4]> input_335_pad_0 = const()[name = tensor<string, []>("input_335_pad_0"), val = tensor<int32, [4]>([1, 1, 1, 1])];
            tensor<fp16, [64, 1, 3, 3]> model_23_cv3_2_1_0_conv_weight_to_fp16_palettized = constexpr_lut_to_dense()[indices = tensor<uint8, [576]>(BLOBFILE(path = tensor<string, []>("@model_path/weights/weight.bin"), offset = tensor<uint64, []>(2934464))), lut = tensor<fp16, [256]>(BLOBFILE(path = tensor<string, []>("@model_path/weights/weight.bin"), offset = tensor<uint64, []>(2935104))), name = tensor<string, []>("model_23_cv3_2_1_0_conv_weight_to_fp16_palettized"), shape = tensor<uint32, [4]>([64, 1, 3, 3])];
            tensor<fp16, [64]> model_23_cv3_2_1_0_conv_bias_to_fp16 = const()[name = tensor<string, []>("model_23_cv3_2_1_0_conv_bias_to_fp16"), val = tensor<fp16, [64]>(BLOBFILE(path = tensor<string, []>("@model_path/weights/weight.bin"), offset = tensor<uint64, []>(2935680)))];
            tensor<fp16, [1, 64, 20, 12]> input_335_cast_fp16 = conv(bias = model_23_cv3_2_1_0_conv_bias_to_fp16, dilations = var_1265, groups = var_928, pad = input_335_pad_0, pad_type = input_335_pad_type_0, strides = var_1263, weight = model_23_cv3_2_1_0_conv_weight_to_fp16_palettized, x = input_333_cast_fp16)[name = tensor<string, []>("input_335_cast_fp16")];
            tensor<fp16, [1, 64, 20, 12]> input_337_cast_fp16 = silu(x = input_335_cast_fp16)[name = tensor<string, []>("input_337_cast_fp16")];
            tensor<int32, [2]> var_1272 = const()[name = tensor<string, []>("op_1272"), val = tensor<int32, [2]>([1, 1])];
            tensor<int32, [2]> var_1274 = const()[name = tensor<string, []>("op_1274"), val = tensor<int32, [2]>([1, 1])];
            tensor<string, []> input_339_pad_type_0 = const()[name = tensor<string, []>("input_339_pad_type_0"), val = tensor<string, []>("custom")];
            tensor<int32, [4]> input_339_pad_0 = const()[name = tensor<string, []>("input_339_pad_0"), val = tensor<int32, [4]>([0, 0, 0, 0])];
            tensor<fp16, [64, 64, 1, 1]> model_23_cv3_2_1_1_conv_weight_to_fp16_palettized = constexpr_lut_to_dense()[indices = tensor<uint8, [4096]>(BLOBFILE(path = tensor<string, []>("@model_path/weights/weight.bin"), offset = tensor<uint64, []>(2935872))), lut = tensor<fp16, [256]>(BLOBFILE(path = tensor<string, []>("@model_path/weights/weight.bin"), offset = tensor<uint64, []>(2940032))), name = tensor<string, []>("model_23_cv3_2_1_1_conv_weight_to_fp16_palettized"), shape = tensor<uint32, [4]>([64, 64, 1, 1])];
            tensor<fp16, [64]> model_23_cv3_2_1_1_conv_bias_to_fp16 = const()[name = tensor<string, []>("model_23_cv3_2_1_1_conv_bias_to_fp16"), val = tensor<fp16, [64]>(BLOBFILE(path = tensor<string, []>("@model_path/weights/weight.bin"), offset = tensor<uint64, []>(2940608)))];
            tensor<fp16, [1, 64, 20, 12]> input_339_cast_fp16 = conv(bias = model_23_cv3_2_1_1_conv_bias_to_fp16, dilations = var_1274, groups = var_931, pad = input_339_pad_0, pad_type = input_339_pad_type_0, strides = var_1272, weight = model_23_cv3_2_1_1_conv_weight_to_fp16_palettized, x = input_337_cast_fp16)[name = tensor<string, []>("input_339_cast_fp16")];
            tensor<fp16, [1, 64, 20, 12]> input_341_cast_fp16 = silu(x = input_339_cast_fp16)[name = tensor<string, []>("input_341_cast_fp16")];
            tensor<int32, [2]> var_1280 = const()[name = tensor<string, []>("op_1280"), val = tensor<int32, [2]>([1, 1])];
            tensor<int32, [2]> var_1282 = const()[name = tensor<string, []>("op_1282"), val = tensor<int32, [2]>([1, 1])];
            tensor<string, []> var_1284_pad_type_0 = const()[name = tensor<string, []>("op_1284_pad_type_0"), val = tensor<string, []>("custom")];
            tensor<int32, [4]> var_1284_pad_0 = const()[name = tensor<string, []>("op_1284_pad_0"), val = tensor<int32, [4]>([0, 0, 0, 0])];
            tensor<fp16, [1, 64, 1, 1]> model_23_cv3_2_2_weight_to_fp16 = const()[name = tensor<string, []>("model_23_cv3_2_2_weight_to_fp16"), val = tensor<fp16, [1, 64, 1, 1]>(BLOBFILE(path = tensor<string, []>("@model_path/weights/weight.bin"), offset = tensor<uint64, []>(2940800)))];
            tensor<fp16, [1]> model_23_cv3_2_2_bias_to_fp16 = const()[name = tensor<string, []>("model_23_cv3_2_2_bias_to_fp16"), val = tensor<fp16, [1]>([-0x1.15cp+2])];
            tensor<fp16, [1, 1, 20, 12]> var_1284_cast_fp16 = conv(bias = model_23_cv3_2_2_bias_to_fp16, dilations = var_1282, groups = var_931, pad = var_1284_pad_0, pad_type = var_1284_pad_type_0, strides = var_1280, weight = model_23_cv3_2_2_weight_to_fp16, x = input_341_cast_fp16)[name = tensor<string, []>("op_1284_cast_fp16")];
            tensor<bool, []> xi_interleave_0 = const()[name = tensor<string, []>("xi_interleave_0"), val = tensor<bool, []>(false)];
            tensor<fp16, [1, 65, 20, 12]> xi_cast_fp16 = concat(axis = var_931, interleave = xi_interleave_0, values = (var_1234_cast_fp16, var_1284_cast_fp16))[name = tensor<string, []>("xi_cast_fp16")];
            tensor<int32, [3]> var_1288 = const()[name = tensor<string, []>("op_1288"), val = tensor<int32, [3]>([1, 65, -1])];
            tensor<fp16, [1, 65, 3840]> var_1289_cast_fp16 = reshape(shape = var_1288, x = xi_1_cast_fp16)[name = tensor<string, []>("op_1289_cast_fp16")];
            tensor<int32, [3]> var_1290 = const()[name = tensor<string, []>("op_1290"), val = tensor<int32, [3]>([1, 65, -1])];
            tensor<fp16, [1, 65, 960]> var_1291_cast_fp16 = reshape(shape = var_1290, x = xi_3_cast_fp16)[name = tensor<string, []>("op_1291_cast_fp16")];
            tensor<int32, [3]> var_1292 = const()[name = tensor<string, []>("op_1292"), val = tensor<int32, [3]>([1, 65, -1])];
            tensor<fp16, [1, 65, 240]> var_1293_cast_fp16 = reshape(shape = var_1292, x = xi_cast_fp16)[name = tensor<string, []>("op_1293_cast_fp16")];
            tensor<bool, []> var_1295_interleave_0 = const()[name = tensor<string, []>("op_1295_interleave_0"), val = tensor<bool, []>(false)];
            tensor<fp16, [1, 65, 5040]> var_1295_cast_fp16 = concat(axis = var_924, interleave = var_1295_interleave_0, values = (var_1289_cast_fp16, var_1291_cast_fp16, var_1293_cast_fp16))[name = tensor<string, []>("op_1295_cast_fp16")];
            tensor<int32, [2]> var_1296 = const()[name = tensor<string, []>("op_1296"), val = tensor<int32, [2]>([64, 1])];
            tensor<int32, []> var_1297_axis_0 = const()[name = tensor<string, []>("op_1297_axis_0"), val = tensor<int32, []>(1)];
            tensor<fp16, [1, 64, 5040]> var_1297_cast_fp16_0, tensor<fp16, [1, 1, 5040]> var_1297_cast_fp16_1 = split(axis = var_1297_axis_0, split_sizes = var_1296, x = var_1295_cast_fp16)[name = tensor<string, []>("op_1297_cast_fp16")];
            tensor<int32, [4]> var_1303 = const()[name = tensor<string, []>("op_1303"), val = tensor<int32, [4]>([1, 4, 16, 5040])];
            tensor<fp16, [1, 4, 16, 5040]> var_1304_cast_fp16 = reshape(shape = var_1303, x = var_1297_cast_fp16_0)[name = tensor<string, []>("op_1304_cast_fp16")];
            tensor<int32, [4]> var_1305_perm_0 = const()[name = tensor<string, []>("op_1305_perm_0"), val = tensor<int32, [4]>([0, 2, 1, 3])];
            tensor<fp16, [1, 16, 4, 5040]> transpose_0 = transpose(perm = var_1305_perm_0, x = var_1304_cast_fp16)[name = tensor<string, []>("transpose_0")];
            tensor<fp16, [1, 16, 4, 5040]> input_cast_fp16 = softmax(axis = var_931, x = transpose_0)[name = tensor<string, []>("input_cast_fp16")];
            tensor<int32, [2]> var_1308 = const()[name = tensor<string, []>("op_1308"), val = tensor<int32, [2]>([1, 1])];
            tensor<int32, [2]> var_1310 = const()[name = tensor<string, []>("op_1310"), val = tensor<int32, [2]>([1, 1])];
            tensor<string, []> var_1312_pad_type_0 = const()[name = tensor<string, []>("op_1312_pad_type_0"), val = tensor<string, []>("custom")];
            tensor<int32, [4]> var_1312_pad_0 = const()[name = tensor<string, []>("op_1312_pad_0"), val = tensor<int32, [4]>([0, 0, 0, 0])];
            tensor<fp16, [1, 16, 1, 1]> model_23_dfl_conv_weight_to_fp16 = const()[name = tensor<string, []>("model_23_dfl_conv_weight_to_fp16"), val = tensor<fp16, [1, 16, 1, 1]>(BLOBFILE(path = tensor<string, []>("@model_path/weights/weight.bin"), offset = tensor<uint64, []>(2940992)))];
            tensor<fp16, [1, 1, 4, 5040]> var_1312_cast_fp16 = conv(dilations = var_1310, groups = var_931, pad = var_1312_pad_0, pad_type = var_1312_pad_type_0, strides = var_1308, weight = model_23_dfl_conv_weight_to_fp16, x = input_cast_fp16)[name = tensor<string, []>("op_1312_cast_fp16")];
            tensor<int32, [3]> var_1313 = const()[name = tensor<string, []>("op_1313"), val = tensor<int32, [3]>([1, 4, 5040])];
            tensor<fp16, [1, 4, 5040]> distance_cast_fp16 = reshape(shape = var_1313, x = var_1312_cast_fp16)[name = tensor<string, []>("distance_cast_fp16")];
            tensor<int32, [2]> var_1316_split_sizes_0 = const()[name = tensor<string, []>("op_1316_split_sizes_0"), val = tensor<int32, [2]>([2, 2])];
            tensor<int32, []> var_1316_axis_0 = const()[name = tensor<string, []>("op_1316_axis_0"), val = tensor<int32, []>(1)];
            tensor<fp16, [1, 2, 5040]> var_1316_cast_fp16_0, tensor<fp16, [1, 2, 5040]> var_1316_cast_fp16_1 = split(axis = var_1316_axis_0, split_sizes = var_1316_split_sizes_0, x = distance_cast_fp16)[name = tensor<string, []>("op_1316_cast_fp16")];
            tensor<fp16, [1, 2, 5040]> anchor_points_to_fp16_palettized = constexpr_lut_to_dense()[indices = tensor<uint8, [10080]>(BLOBFILE(path = tensor<string, []>("@model_path/weights/weight.bin"), offset = tensor<uint64, []>(2941120))), lut = tensor<fp16, [256]>(BLOBFILE(path = tensor<string, []>("@model_path/weights/weight.bin"), offset = tensor<uint64, []>(2951296))), name = tensor<string, []>("anchor_points_to_fp16_palettized"), shape = tensor<uint32, [3]>([1, 2, 5040])];
            tensor<fp16, [1, 2, 5040]> x1y1_cast_fp16 = sub(x = anchor_points_to_fp16_palettized, y = var_1316_cast_fp16_0)[name = tensor<string, []>("x1y1_cast_fp16")];
            tensor<fp16, [1, 2, 5040]> x2y2_cast_fp16 = add(x = anchor_points_to_fp16_palettized, y = var_1316_cast_fp16_1)[name = tensor<string, []>("x2y2_cast_fp16")];
            tensor<fp16, [1, 2, 5040]> var_1320_cast_fp16 = add(x = x1y1_cast_fp16, y = x2y2_cast_fp16)[name = tensor<string, []>("op_1320_cast_fp16")];
            tensor<fp16, []> _inversed_c_xy_y_0_to_fp16 = const()[name = tensor<string, []>("_inversed_c_xy_y_0_to_fp16"), val = tensor<fp16, []>(0x1p-1)];
            tensor<fp16, [1, 2, 5040]> _inversed_c_xy_cast_fp16 = mul(x = var_1320_cast_fp16, y = _inversed_c_xy_y_0_to_fp16)[name = tensor<string, []>("_inversed_c_xy_cast_fp16")];
            tensor<fp16, [1, 2, 5040]> wh_cast_fp16 = sub(x = x2y2_cast_fp16, y = x1y1_cast_fp16)[name = tensor<string, []>("wh_cast_fp16")];
            tensor<bool, []> var_1325_interleave_0 = const()[name = tensor<string, []>("op_1325_interleave_0"), val = tensor<bool, []>(false)];
            tensor<fp16, [1, 4, 5040]> var_1325_cast_fp16 = concat(axis = var_931, interleave = var_1325_interleave_0, values = (_inversed_c_xy_cast_fp16, wh_cast_fp16))[name = tensor<string, []>("op_1325_cast_fp16")];
            tensor<fp16, [1, 5040]> op_919_to_fp16_palettized = constexpr_lut_to_dense()[indices = tensor<uint8, [5040]>(BLOBFILE(path = tensor<string, []>("@model_path/weights/weight.bin"), offset = tensor<uint64, []>(2951872))), lut = tensor<fp16, [256]>(BLOBFILE(path = tensor<string, []>("@model_path/weights/weight.bin"), offset = tensor<uint64, []>(2956992))), name = tensor<string, []>("op_919_to_fp16_palettized"), shape = tensor<uint32, [2]>([1, 5040])];
            tensor<fp16, [1, 4, 5040]> dbox_cast_fp16 = mul(x = var_1325_cast_fp16, y = op_919_to_fp16_palettized)[name = tensor<string, []>("dbox_cast_fp16")];
            tensor<fp16, [1, 1, 5040]> var_1327_cast_fp16 = sigmoid(x = var_1297_cast_fp16_1)[name = tensor<string, []>("op_1327_cast_fp16")];
            tensor<int32, [4]> var_1328 = const()[name = tensor<string, []>("op_1328"), val = tensor<int32, [4]>([1, 17, 3, -1])];
            tensor<fp16, [1, 17, 3, 5040]> y_cast_fp16 = reshape(shape = var_1328, x = kpts_cast_fp16)[name = tensor<string, []>("y_cast_fp16")];
            tensor<int32, [4]> var_1332_begin_0 = const()[name = tensor<string, []>("op_1332_begin_0"), val = tensor<int32, [4]>([0, 0, 0, 0])];
            tensor<int32, [4]> var_1332_end_0 = const()[name = tensor<string, []>("op_1332_end_0"), val = tensor<int32, [4]>([1, 17, 2, 5040])];
            tensor<bool, [4]> var_1332_end_mask_0 = const()[name = tensor<string, []>("op_1332_end_mask_0"), val = tensor<bool, [4]>([true, true, false, true])];
            tensor<fp16, [1, 17, 2, 5040]> var_1332_cast_fp16 = slice_by_index(begin = var_1332_begin_0, end = var_1332_end_0, end_mask = var_1332_end_mask_0, x = y_cast_fp16)[name = tensor<string, []>("op_1332_cast_fp16")];
            tensor<fp16, []> var_1333_to_fp16 = const()[name = tensor<string, []>("op_1333_to_fp16"), val = tensor<fp16, []>(0x1p+1)];
            tensor<fp16, [1, 17, 2, 5040]> var_1334_cast_fp16 = mul(x = var_1332_cast_fp16, y = var_1333_to_fp16)[name = tensor<string, []>("op_1334_cast_fp16")];
            tensor<fp16, [2, 5040]> op_1336_to_fp16_palettized = constexpr_lut_to_dense()[indices = tensor<uint8, [10080]>(BLOBFILE(path = tensor<string, []>("@model_path/weights/weight.bin"), offset = tensor<uint64, []>(2957568))), lut = tensor<fp16, [256]>(BLOBFILE(path = tensor<string, []>("@model_path/weights/weight.bin"), offset = tensor<uint64, []>(2967744))), name = tensor<string, []>("op_1336_to_fp16_palettized"), shape = tensor<uint32, [2]>([2, 5040])];
            tensor<fp16, [1, 17, 2, 5040]> var_1337_cast_fp16 = add(x = var_1334_cast_fp16, y = op_1336_to_fp16_palettized)[name = tensor<string, []>("op_1337_cast_fp16")];
            tensor<fp16, [1, 17, 2, 5040]> a_5_cast_fp16 = mul(x = var_1337_cast_fp16, y = op_919_to_fp16_palettized)[name = tensor<string, []>("a_5_cast_fp16")];
            tensor<int32, [4]> var_1341_begin_0 = const()[name = tensor<string, []>("op_1341_begin_0"), val = tensor<int32, [4]>([0, 0, 2, 0])];
            tensor<int32, [4]> var_1341_end_0 = const()[name = tensor<string, []>("op_1341_end_0"), val = tensor<int32, [4]>([1, 17, 3, 5040])];
            tensor<bool, [4]> var_1341_end_mask_0 = const()[name = tensor<string, []>("op_1341_end_mask_0"), val = tensor<bool, [4]>([true, true, false, true])];
            tensor<fp16, [1, 17, 1, 5040]> var_1341_cast_fp16 = slice_by_index(begin = var_1341_begin_0, end = var_1341_end_0, end_mask = var_1341_end_mask_0, x = y_cast_fp16)[name = tensor<string, []>("op_1341_cast_fp16")];
            tensor<fp16, [1, 17, 1, 5040]> var_1342_cast_fp16 = sigmoid(x = var_1341_cast_fp16)[name = tensor<string, []>("op_1342_cast_fp16")];
            tensor<bool, []> a_interleave_0 = const()[name = tensor<string, []>("a_interleave_0"), val = tensor<bool, []>(false)];
            tensor<fp16, [1, 17, 3, 5040]> a_cast_fp16 = concat(axis = var_924, interleave = a_interleave_0, values = (a_5_cast_fp16, var_1342_cast_fp16))[name = tensor<string, []>("a_cast_fp16")];
            tensor<int32, [3]> var_1345 = const()[name = tensor<string, []>("op_1345"), val = tensor<int32, [3]>([1, 51, -1])];
            tensor<fp16, [1, 51, 5040]> pred_kpt_cast_fp16 = reshape(shape = var_1345, x = a_cast_fp16)[name = tensor<string, []>("pred_kpt_cast_fp16")];
            tensor<bool, []> var_1348_interleave_0 = const()[name = tensor<string, []>("op_1348_interleave_0"), val = tensor<bool, []>(false)];
            tensor<fp16, [1, 56, 5040]> var_1348_cast_fp16 = concat(axis = var_931, interleave = var_1348_interleave_0, values = (dbox_cast_fp16, var_1327_cast_fp16, pred_kpt_cast_fp16))[name = tensor<string, []>("op_1348_cast_fp16")];
            tensor<string, []> var_1348_cast_fp16_to_fp32_dtype_0 = const()[name = tensor<string, []>("op_1348_cast_fp16_to_fp32_dtype_0"), val = tensor<string, []>("fp32")];
            tensor<fp32, [1, 56, 5040]> var_1348 = cast(dtype = var_1348_cast_fp16_to_fp32_dtype_0, x = var_1348_cast_fp16)[name = tensor<string, []>("cast_0")];
        } -> (var_1348);
}